Temporal_Graph/temporal_truth_model.pt (torch, 933535 bytes, 13 tensors)

comment_encoder.gru.weight_ih_l0 f4 [384, 129]
00000000: 7327 4d3c 0736 47bd c451 493d fb7b a93d
00000010: 9ec5 b63d 9da5 48bd 5367 39bd 53ec 2cbd
00000020: f41c c3bd f6c8 4bbd a4f5 23bd dbde 8b3d
00000030: 4a80 a6bd c7df 453c 7d76 123d c4de fb3c
00000040: d0ff 443d 54a9 7abd 7dfb 9dbd ff58 90bd
00000050: c29f 18bd 6533 b5bd 0754 60bd 89b4 6ebd
00000060: 822f 7a3d e514 3ebc cab9 9dbd 88a4 6cbd
00000070: 89db 813d 62fb 55bd 149f 30bd 29f6 953d
00000080: 9d03 6d3d bbbe 8abd 49f0 c43d 74f2 863d
00000090: f1a5 89bc 184e d7bc f6a2 6e3d 6a21 673d
000000a0: 38d6 773d 2b4e 99bd 898b 9dbc e671 60bd
000000b0: 8091 bd3d f235 a23d 818d f4bc f166 04bd
000000c0: f805 9abd b9e9 733d e52f 2bbd ad94 0abd
000000d0: 2d06 a3bd 567e bbbd fbb0 62bc b81c dabc
000000e0: ae22 7c3d ec41 74bd f018 3fbd 6d58 28bd
000000f0: 1c68 2f3d efd6 943d ac63 163d 2389 ec3b
00000100: 3234 55bc 8a7a 92bd 8ff9 f93c ce78 ce3c
00000110: 05d2 48bc a498 aa3d d030 90bd 2120 423c
00000120: ca56 cc3c 4d98 8bbd 1cb2 4bbc 15b8 eaba
00000130: 5d04 63bd aded 25bd 3bf2 9dbd 22c6 163d
00000140: f989 1cbc 8214 95bd 394a 383d 19db 3dbd
00000150: 08fa c03d 31ee 2c3d 1d93 d2bc 6538 f33c
00000160: 7448 7ebb 77c3 a23d b52a 27bc 0b7d c83d
00000170: e728 9c3d 63e4 033d 3a0f 88bd 2a1c 12bd
00000180: 7f1d d53c 8de2 403c 1804 66bc 7c88 303d
00000190: 9541 ac3d 8347 88bd b016 9a3c a756 c0bc
000001a0: c1d2 903c 151e 753d ab4d 0f3d 318a e0bc
000001b0: 0c3c 7cbd ab62 673d fed1 593d e05a e83b
000001c0: 8f01 82bc f017 633c 9a10 523c 600c d4bc
000001d0: 40ed 4b3d db7c 0a3d 941d 9e3d 60c7 28bd
000001e0: 7f91 1a3d a3d6 96bd 684c 60bd b958 88bd
000001f0: 56a7 98bd 4ce0 98bc f740 ab3c eddb 49bc
00000200: 6375 46bb 2032 803d 8236 c1bc 860c ae3d
00000210: 8b89 a73d 29bd a1bd 1530 2b3d 3269 6a3d
00000220: 723e d73c 864b 23bd 72c9 29bd af24 783a
00000230: 981b 98bd 7071 a6bd bb74 303d e951 963c
00000240: 6b65 acbd 18c7 06bd 7da0 c83c 61bb 82bc
00000250: a019 17bd 3a8b 81bb 5f25 afbd 4868 b1bd
00000260: fc22 cc3b 57df 87bc 5643 b83a 7440 983d
00000270: f65c 663d 9021 07bd 17a8 07bd ac49 a3bd
00000280: a186 70bd e4de ab3d 11f3 11bd d508 b03d
00000290: 6c1a 163d cffd 2f3c 507b ae3d 7ae3 89bd
000002a0: bf67 2c3d 6666 05bd 84c3 85bc b824 5e3c
000002b0: 694f 9abd 4ce9 aebc a1db 91bd c4af 05bd
000002c0: a783 20bd c0f3 423d e56e 973d b259 b23d
000002d0: 8d64 6d3d 4761 88bd 1e44 7e3d d538 923c
000002e0: 8db8 71bd 7aa6 a43d 5661 bc3b 6642 e4ba
000002f0: fe4c 573d d3a2 163d 2e32 63bd 98cb 483d
00000300: adf5 ecbb c00a 9fbd c4f2 7b3c 070e b33c
00000310: c9cb 373c 25b2 a23d 68c0 b9bb f897 92bd
00000320: 029a 10bd 54d6 71bc b470 80bc 384a b6bd
00000330: b793 e13c 8750 84bb 1862 1cbd 3061 763d
00000340: eee9 71bd e5b7 12bb 2c08 133b 2806 acbc
00000350: 9f62 e7bc ef51 2d3d 16b4 633b a9cc 24bd
00000360: 3b43 083a a7c5 803d 6f76 b7bd db5e 59bd
00000370: a069 8b3d 9dca 5d3d 9a76 59bc b51e efbc
00000380: 5809 fc3c 1feb 88bc b356 9fbd 8eb7 a53c
00000390: 3cb1 803d d079 6abd 2473 793d e2e5 c53b
000003a0: 5df4 093d c9b7 fdbc 5495 3a3d 5069 a03d
000003b0: 73ab 223c 4058 38ba 4952 1b3c b9d3 f0bb
000003c0: 333c 8cbd 8fd0 c73c 0df0 813d 0e62 97bd
000003d0: fb93 903d 138e c6bd bd0e 8a3d 7328 bfbd
000003e0: 9c2d 423d 709d b4bc e7c0 703d 8a64 15bd
000003f0: 52fd 2fbb e14a 953d 4e69 923b d5a7 a5bd
0.012521612 -0.04863551 0.049150243 0.082756005 0.08924411 -0.048986066 -0.045264553 -0.042217564
-0.09527007 -0.0497522 -0.040029183 0.06829616 -0.08129938 0.012077278 0.03575753 0.030745871
0.048095524 -0.06119664 -0.07713983 -0.07048225 -0.037261732 -0.08847693 -0.054767635 -0.05827764
0.061080463 -0.011601661 -0.07701452 -0.057774097 0.06340701 -0.05224169 -0.04312046 0.07322342
0.057864774 -0.0677466 0.09616143 0.06589213 -0.01680276 -0.026282355 0.05826088 0.05642835
0.06050703 -0.074856125 -0.019231575 -0.054796122 0.092562675 0.079204455 -0.02985263 -0.032324735
-0.0752067 0.059549067 -0.041793723 -0.033833195 -0.07960162 -0.09154956 -0.013836141 -0.026625022
0.06155651 -0.05963318 -0.04665464 -0.041099954 0.042823896 0.07267558 0.03671615 0.0072184964
-0.013012933 -0.07152279 0.030514507 0.025204089 -0.012257104 0.08329895 -0.0704056 0.01184848
0.024943728 -0.068161584 -0.012432601 -0.0017907644 -0.055424083 -0.04050987 -0.077122174 0.036810048
-0.00955438 -0.07279302 0.04499266 -0.046351526 0.0942269 0.042219345 -0.025704915 0.029689977
-0.003880051 0.07947438 -0.010203053 0.09789475 0.07624989 0.03220023 -0.06643529 -0.03567139
0.026015041 0.011772764 -0.014039062 0.04309891 0.08410946 -0.06654265 0.018809646 -0.023478819
0.01767862 0.05984314 0.03498618 -0.027409645 -0.061580703 0.05649058 0.05317878 0.0070909113
-0.015869884 0.013860688 0.012821341 -0.025884807 0.049786806 0.033810478 0.07720485 -0.041205764
0.037736412 -0.073651575 -0.054760367 -0.066575475 -0.07453792 -0.01866164 0.020905001 -0.012320501
-0.003028237 0.062595606 -0.023585562 0.084984824 0.08180531 -0.078974076 0.0417939 0.05722923
0.026274893 -0.039866947 -0.04145188 0.00094659155 -0.07427138 -0.08127105 0.043080073 0.018349605
-0.084177814 -0.032904714 0.02449059 -0.01595849 -0.036889672 -0.0039533647 -0.0855205 -0.08662468
0.0062297564 -0.016585989 0.0014058154 0.074341685 0.056241 -0.032990992 -0.033119287 -0.07973036
-0.058722142 0.083921224 -0.035632197 0.085954346 0.03664629 0.010741665 0.08519614 -0.06732841
0.042091127 -0.032568358 -0.01632858 0.013558559 -0.075346775 -0.021351479 -0.07121969 -0.032638326
-0.039188053 0.04759574 0.07394198 0.08708514 0.05795722 -0.06659179 0.06207668 0.017849365
-0.059013892 0.080395654 0.005748908 -0.0017414808 0.05256366 0.036776375 -0.055467777 0.049022287
-0.0072314353 -0.07765722 0.015377704 0.021857275 0.01121802 0.079441346 -0.0056686886 -0.07157892
-0.035303123 -0.014760572 -0.015678741 -0.08900875 0.027536256 -0.00403792 -0.038179487 0.06015128
-0.059060983 -0.0022387442 0.002243529 -0.02099903 -0.028245268 0.042314466 0.003474479 -0.04023424
0.00051980064 0.06287699 -0.08958136 -0.053068977 0.06807256 0.054148305 -0.013272906 -0.029189447
0.030766174 -0.016713677 -0.077802084 0.020229127 0.06283805 -0.057245076 0.060900822 0.006039367
0.03368031 -0.030971425 0.045552567 0.07832587 0.009928572 -0.0007032193 0.0094800675 -0.007349458
-0.068474196 0.02439144 0.06344614 -0.07391749 0.07059475 -0.09695067 0.06741092 -0.09333887
0.047406778 -0.022047728 0.058777716 -0.036472835 -0.0026853872 0.07289673 0.0044681197 -0.08088652

comment_encoder.gru.weight_hh_l0 f4 [384, 128]
00000000: a502 be3b 04ec 7ebd 6ade a6bd d7f8 0cbd
00000010: a8ef b83d b50f 47bd 3637 c73b c969 843d
00000020: 5728 30bd 62b0 193d 9e2b 7cba f86b bebc
00000030: b5e3 c93c 28b8 6f3d bbc1 cebb 22ea e33b
00000040: 984f ddbb d0bd 64bd 6d42 a43d f592 6c3d
00000050: cd8f ac3d ebb6 90bd c531 80bd 57f0 81bd
00000060: a445 713d a5d5 bb3c 6023 d63c 0852 8b3d
00000070: 7b00 faba 43df 1d3d f82a 9d3d 174e a43c
00000080: 874a 863d 2d9d 89bd 7f5b a93d fb2c 50b9
00000090: f322 8ebd 04b1 fd3c 862a 963d 242c 65bd
000000a0: 05e9 533d 4f39 89bd 6ff6 7f3d 6251 d63d
000000b0: ed5f c23c 1c47 5f3c 432d a53d 7bf1 9a3d
000000c0: 94df 413d 9613 0cbd 2c95 45bd 842f 92bd
000000d0: 25b9 8f3d aa8e b43c 8fed e7bc caaf 9bbb
000000e0: 73e0 423d a67b 813d 7aed 933d 9907 a7bc
000000f0: 0ae0 023b 7676 2e3c 5c2c 133d 830f da3c
00000100: 82c0 4ebd 8aeb f1bc 5b24 803d 74c7 11bd
00000110: 8a49 7d3d f98f 01bd c7c9 eabc eb2b 083d
00000120: 02c1 9ebd 54f3 ae3c 2a8a 94bd 22c7 cbb8
00000130: ec42 87bd 2557 943d 15dc 6bbb bf28 42bd
00000140: 8ef3 1b3d 2deb b4bc f4aa a03d f28d 83bd
00000150: a803 a5bd 4eb4 a3bc a14f 883c d4c5 f4bc
00000160: ddca 833d 4af1 57bd 5e0f 18bd 3dd4 923d
00000170: 3714 903c 5546 f03a 6150 7b3d 8e5f 1c3d
00000180: c248 1b3a b171 9f3d 932f bf3d 5102 643d
00000190: e379 4abd 8cf2 143d 1e33 74bd 5651 8cbd
000001a0: d3cf 823c 4795 e6bc e3a9 96bb 224a 0abd
000001b0: e2dd 91bd 3fb5 14bd 5f3c 92bd 63ec 9fbd
000001c0: ee2d 3ebd a02a bdbd c1e6 97bd bf49 b6bb
000001d0: 731a 38b9 9996 30bc 1cfd 79bd cce2 41bc
000001e0: 091d 9fbd 7741 8d3c d4ef 873d df0c 993d
000001f0: 56b5 cfbd 15bb 90bd 2a05 c2bc 1d89 38bd
00000200: da3c a9bd 02b4 ecbc dfff 0f3d 38a1 20bd
00000210: c453 373d 8119 e53c 7909 7b3d de44 373d
00000220: 206c 29bd 79aa b0bd bf81 89bd 5b87 2bbd
00000230: b93e a2bd 47f4 b43d fdee b03d 54e5 4e3d
00000240: d36f b5bd 14d6 c03c be98 1d3d 891b bcbd
00000250: 8f70 b23c 9a57 813c ffb7 af3d f503 653d
00000260: 838b 04bd 5354 2dbd b2ba acbb 5fee 193d
00000270: 5d69 7a3d e545 81bd 28ab 0a3d 9411 82bd
00000280: cee0 98bd e9a0 27bb 7f80 09bd 6e4f 4fbd
00000290: 3585 cbbb d6cf 353d 98d9 8abc 2a65 a4bd
000002a0: 833d b53b 4e33 8a3d 6cf1 963c 884e f43c
000002b0: ce93 623d c156 c2bd 8776 413d 5999 ad3c
000002c0: fdeb aabd 3909 713d 66e7 01bd a391 69bb
000002d0: b641 80bc 5797 073d cc73 ca3c 6e33 efbc
000002e0: ef79 9fbd cc42 a9bb 5cb6 783d 73d0 c03d
000002f0: 66b4 973d 327b 7dbc 1f4e 723c dd0b 0bbd
00000300: 99d6 94bd 6ee4 363d 2819 713d ac54 c5bc
00000310: 6c62 9e3c 8136 38bd 6cc3 633c d494 983d
00000320: 1f9a 59bc dde1 b53d 1079 133d 867c 83bc
00000330: d6b5 20bd 73e2 19bd debf b1bc 8f73 b2bc
00000340: cf35 4dbd 1d79 b2bd b564 56bd a26c 32bb
00000350: d4d9 383c 5990 41bd 343b 5ebd eceb 5ebd
00000360: 9476 063c 50e6 48bc 3b63 2a3c fd41 a4bd
00000370: a681 923d c071 82bd e44a 9bbd d778 bebd
00000380: a9e0 30bd e809 0dbd bbec 943c 5722 4cbd
00000390: 37c8 ab3d 25c2 aabd bea9 2dbd 7ef8 323d
000003a0: 12f4 3a3d 7f17 343d c7ac 32bd a31c 22bd
000003b0: 66b6 5aba c700 263d 9e67 c5bc 3d98 193c
000003c0: c867 89bd 57a9 0a3d 0fec e5bb a9ae 1ebd
000003d0: b506 31bc c782 933d b7c8 4dbc b0ac 3fbd
000003e0: 2ef4 ab3c 9259 803d 8ace ec3c 3891 a3bd
000003f0: 7cfd 4dbd 15f9 48bd 7b97 8a3d f499 4f3d
0.005798655 -0.0622368 -0.08147891 -0.034417 0.09030086 -0.048598964 0.0060795797 0.064654894
-0.04300722 0.037521727 -0.00096195366 -0.023244843 0.024644712 0.058525234 -0.0063097156 0.006955401
-0.006753873 -0.05584508 0.08020482 0.057757337 0.08425865 -0.07066139 -0.06259493 -0.06344669
0.058904305 0.022929022 0.026139915 0.068027556 -0.001907363 0.038542997 0.07674211 0.020056767
0.06557184 -0.06719432 0.082694046 -0.00019853182 -0.0694026 0.030968197 0.073323295 -0.0559503
0.051735897 -0.06700384 0.062490877 0.10464741 0.023727382 0.013627794 0.080652736 0.0756559
0.04733236 -0.034198366 -0.048237965 -0.07137969 0.070177354 0.022040684 -0.028311519 -0.0047511803
0.047577333 0.06322412 0.072230294 -0.020389365 0.0019969963 0.0106483605 0.035930976 0.026618725
-0.05047656 -0.02953126 0.06256934 -0.035590604 0.06183771 -0.031631444 -0.028660668 0.03324501
-0.07751657 0.021356262 -0.07252915 -9.716886e-05 -0.06604561 0.07243184 -0.0035989333 -0.04740214
0.03807407 -0.022084797 0.07845107 -0.06423558 -0.08057338 -0.019983437 0.016639533 -0.029879488
0.064351775 -0.052720346 -0.03712403 0.071693875 0.017587764 0.0018331507 0.061355952 0.038177066
0.00059236225 0.07785357 0.09335246 0.05566627 -0.049432646 0.036364123 -0.05961906 -0.06851451
0.015968239 -0.028147353 -0.004597889 -0.033762105 -0.07122399 -0.036305662 -0.07140421 -0.07808759
-0.04643052 -0.09236646 -0.0741706 -0.0055629904 -0.0001755746 -0.010778093 -0.0610324 -0.011833858
-0.0776921 0.01724313 0.066375405 0.07473158 -0.10142009 -0.07066933 -0.023684103 -0.045052636
-0.0826356 -0.028894428 0.035156127 -0.03921625 0.04475762 0.027966263 0.06128833 0.04474341
-0.04136288 -0.08626265 -0.067142 -0.041877132 -0.0792212 0.08835655 0.086393334 0.050511673
-0.088592194 0.02353958 0.038475744 -0.091849394 0.021782188 0.015788842 0.08580016 0.055911977
-0.03235961 -0.042316746 -0.0052712793 0.037580844 0.06113564 -0.063121594 0.033854634 -0.06351009
-0.07464753 -0.0025578088 -0.03356981 -0.05061286 -0.006210948 0.04438766 -0.01694946 -0.08027108
0.0055310144 0.06748067 0.018425666 0.029822603 0.05531674 -0.09489203 0.047232177 0.021191286
-0.083457924 0.058846686 -0.03171482 -0.0035639785 -0.015656333 0.033103313 0.02471342 -0.029199328
-0.07786929 -0.0051654335 0.060720786 0.094147585 0.07407455 -0.015471267 0.014789133 -0.03394686
-0.07267494 0.04465144 0.05886188 -0.024088226 0.01933404 -0.044973854 0.013901573 0.07450262
-0.013281374 0.088809706 0.036004126 -0.016050588 -0.039235912 -0.037569474 -0.021697935 -0.021783618
-0.050100144 -0.08714507 -0.052342135 -0.0027225395 0.011282403 -0.0472568 -0.05425568 -0.05442421
0.008206982 -0.012261942 0.010399635 -0.08020399 0.07153635 -0.06369352 -0.07582644 -0.09300392
-0.043183003 -0.034433275 0.018179288 -0.049837437 0.08387797 -0.083378114 -0.042398207 0.043694012
0.04564292 0.04396772 -0.043621805 -0.03957809 -0.00083432195 0.040528085 -0.02409726 0.009374675
-0.06709248 0.0338529 -0.007016666 -0.038740788 -0.010804822 0.07202678 -0.012560061 -0.046795547
0.020990457 0.06267084 0.02890708 -0.07986683 -0.05029057 -0.049065668 0.06767174 0.05068393

comment_encoder.gru.bias_ih_l0 f4 [384]
00000000: 1f6e 5b3c 9ddd dbbc d74c 553d d560 7f3d
00000010: a0d9 903c f8ce 753d 3584 0d3c bbdc 79bd
00000020: 40bb 84bc 4ffa 62bd 5fe1 1a3d 782e a9bd
00000030: 4c59 b33d b87d e13c ec6f f23a f031 593d
00000040: 02d3 afbd 80fb 47bd fb33 a6bc 4bd0 1aba
00000050: 98d5 61bb ec18 6cbd 52b1 313d d13a cd3c
00000060: b631 18bd 4c5d 403d 716a a13d 2464 c83b
00000070: 53a8 413d 70a6 b7bc 351d 9f3d 8e7e 82bd
00000080: b9f7 fbbc fdf9 ccbb 7c7e a93d 0d02 9c3c
00000090: 7f76 1439 5a81 613b 34ae 423c 8da7 0a3d
000000a0: f4f3 983d b9b3 a9bc 2950 9d3d 2a7a bb3b
000000b0: 69ad b2bc 6269 64bd 8c3e d3bc 5b03 1ebd
000000c0: b1b8 c63c 0d26 c1bc 417b 71bc 8019 ba3d
000000d0: 3b3f 973d 87ad c6bc e054 90bd 6822 57bd
000000e0: 42ac 513c 525f ac3c c55d 0c3d babe 493d
000000f0: 209c d13d 44df 47bc 20d4 5dbd b7a7 e2ba
00000100: f234 5fbd addb 1e3d 8234 c4bd 1b89 893d
00000110: 62e3 8d3c f048 953d b03f cb3d 3a29 afbd
00000120: 6be3 c23b eba9 9cbd 95a0 563d bde5 2e3b
00000130: 5b48 483d 533c 343d 2498 aabd 5eae b0bc
00000140: d771 db3b 53cf b7bd f0ef d8bb e313 98bd
00000150: e146 c1bc 1c54 c03c b1ae 56bd fa60 a53d
00000160: 76b1 ad3d c615 943d b1ae f0bc d743 6cbd
00000170: 1476 31bd 2500 6c3d 2cc4 1c3d 86f5 4f3b
00000180: a113 c5bc d787 ba3d 4e6d 073d 47f8 78bd
00000190: 1e2d 143d 94b8 643c 9693 80bc 6c64 2b3d
000001a0: c4c0 72bd 1333 d83c 113f 823d 4f53 233d
000001b0: 4e8e 7abd 723a b93d 96d8 6f3d 7b5c 763c
000001c0: b0eb 893d 9f7f b43d 2b69 f1bc 1bf8 8fbd
000001d0: 8553 a83d 2d10 8dbd 0b25 14b8 e770 99bd
000001e0: 63a5 89bd 6399 7cbc db98 6f3c 1f9d 293d
000001f0: fd5a 0b3d a327 8a3d 3ed0 5ebc 9574 613d
00000200: 2fe5 903d 4e33 ed3c 08e3 9abd 698c 00bd
00000210: 9435 ff3c 81a0 83bd 7b6d 853a 9dd8 5a3c
00000220: 9945 a13d da86 b63c 125d 74bd 794a a9bd
00000230: 9960 a9bd 767c 70bd 1a59 733d 20a7 6a3d
00000240: 6c11 9fbc a81e 713d 2ac4 c0bc bff3 89bd
00000250: 3d12 db3c ccc1 163d af32 0ebd 4641 57bd
00000260: 6912 2abd f731 6d3d d316 62bd b6a4 d43b
00000270: 4a3f 823d 5d37 fdbc 2f79 613d 232f 313d
00000280: b524 a23d 298d 1d3d 59c1 c4bd 48d0 52bd
00000290: ec94 9ebd bd59 abba 7dfa 07bd 5a03 d83c
000002a0: 4f10 bc3b 08f5 04ba 4377 97bc 9eaf ac3b
000002b0: 7c88 883d 3049 373d 90bd 553d 7bcb 003d
000002c0: 9d42 3e3c c0d7 1a3c e0b1 96bd a487 443c
000002d0: fd84 273d ee3a 5d3d f8f8 98bc 42f0 65bc
000002e0: aa3c c8bd c02e 9b3d 1948 d13c b572 723d
000002f0: f7cf 95bd 6909 64bd 4f85 53bc b42f 60bb
00000300: 3bb2 653d dda1 8d3d 81d8 573c f252 833d
00000310: 5098 81bd 6d87 32bd db9b 9aba e9e2 75bd
00000320: 5ae4 7e3d 293b 893d f8af aebd e951 afbd
00000330: fcdb c6bc 34a9 27bd c03a 283d 09bb 83bd
00000340: f548 babb c495 8d3d b626 8e3d 889c 3cbd
00000350: c3d2 01bd dea8 cf3c d065 42bd 1eed 79bd
00000360: dd25 2b3b 24a4 3fbd 01cd a0bd 0d6a 2c3d
00000370: 1c52 95bc d2d7 0ebd ab5a 0bbd 0bd8 31bd
00000380: 032e 23bd 1e42 f73c 7033 0dbd a384 60bd
00000390: c019 383c 9104 df3b 15e9 21bd 5982 8bbd
000003a0: 3151 b8bc 6c0b 763d 2440 edbc ee5a 11bd
000003b0: 2545 e9bb 52f7 b3bd 34df 123c 3a6f bc3d
000003c0: 2ab9 3bbd 22a6 92bc 7308 8dbd c734 ccbd
000003d0: e62f 25bc f61b 9abd 06f1 24bd 2b0c bebd
000003e0: 05ef 953d 37ba 843d b229 453d c8a6 42bd
000003f0: 64ae 17bc 4c57 05bc 8ef0 85bc 8daa 603d
0.013392954 -0.026839072 0.052075233 0.062348206 0.017681897 0.060011834 0.008637478 -0.06100152
-0.016202569 -0.055414494 0.037812587 -0.08260816 0.087572664 0.027525768 0.001849649 0.05302614
-0.085851684 -0.048823833 -0.020288458 -0.0005905672 -0.0034459587 -0.057640955 0.043381996 0.02505246
-0.037156783 0.046963975 0.0788163 0.0061154533 0.047279667 -0.02241823 0.07769243 -0.06371795
-0.030757772 -0.006255387 0.08276078 0.019043947 0.00014158523 0.0034409375 0.011882354 0.033851195
0.07468405 -0.020715581 0.07681305 0.00572135 -0.021811204 -0.055764563 -0.02578666 -0.03857742
0.02425799 -0.023577714 -0.014738859 0.09086895 0.07385107 -0.024252666 -0.070474386 -0.052523047
0.012797417 0.021041546 0.034269113 0.049254157 0.102348566 -0.012199227 -0.054157376 -0.0017292415
-0.054493852 0.038783718 -0.095803276 0.06715604 0.017320339 0.07289302 0.09924257 -0.08552785
0.0059475205 -0.07649597 0.052399237 0.0026687228 0.04889713 0.044002842 -0.083298 -0.02156752
0.0066969204 -0.08975091 -0.0066203997 -0.07425668 -0.023593368 0.023477606 -0.052412692 0.080751374
0.084811136 0.072307155 -0.029380174 -0.057681885 -0.0433255 0.057617325 0.03827302 0.0031732037
-0.024057211 0.09107941 0.033063225 -0.06078365 0.03617584 0.0139600225 -0.015695374 0.041843817
-0.059265867 0.026391542 0.06359685 0.03987437 -0.06117087 0.09044351 0.05855616 0.0150366975
0.06734407 0.08813404 -0.029469093 -0.07029744 0.08219055 -0.06887851 -3.532045e-05 -0.074922375
-0.06720998 -0.01541743 0.014623846 0.041409608 0.03402232 0.06745841 -0.0135994535 0.055042822
0.07074963 0.028955128 -0.07562834 -0.031383906 0.031153478 -0.06427098 0.0010179722 0.013357309
0.07874603 0.0222811 -0.05965907 -0.08266158 -0.08270378 -0.058712445 0.059411146 0.05728829
-0.019417487 0.058867127 -0.023531038 -0.06735944 0.026742095 0.036805913 -0.034716304 -0.052552484
-0.041521464 0.05790898 -0.055197548 0.0064893616 0.06359728 -0.030910188 0.05504721 0.043257844
0.079171576 0.0384647 -0.09607191 -0.051468164 -0.07743248 -0.0013073009 -0.03319787 0.026368786
0.005739249 -0.0005071913 -0.018489486 0.0052699586 0.06666657 0.04474753 0.052182734 0.031444054
0.0116125615 0.009450853 -0.07358146 0.01199523 0.040898312 0.054011278 -0.018673405 -0.014034333
-0.09777196 0.07577276 0.025547074 0.059191424 -0.07315057 -0.055673037 -0.012910201 -0.003420812
0.056078177 0.069156386 0.013174177 0.06412305 -0.063278794 -0.043586183 -0.0011795716 -0.06003085
0.06222949 0.06700737 -0.08529657 -0.08560545 -0.024274819 -0.04093285 0.041071653 -0.064321585
-0.0056849667 0.06913331 0.06940977 -0.046047717 -0.03169514 0.025349077 -0.047460377 -0.06101715
0.0026115098 -0.046787396 -0.078516014 0.042093325 -0.01822763 -0.03487379 -0.034022015 -0.043418925
-0.039838802 0.030182894 -0.034472883 -0.054813992 0.011236608 0.0068059643 -0.039528925 -0.06811971
-0.022499653 0.060069486 -0.028961249 -0.035487108 -0.0071188384 -0.08787407 0.008964349 0.09200902
-0.045830883 -0.017901484 -0.06886377 -0.09971004 -0.010082221 -0.075248644 -0.04026892 -0.092796646
0.0732098 0.0648083 0.048135467 -0.047522336 -0.009257887 -0.008138489 -0.016350057 0.05485015

comment_encoder.gru.bias_hh_l0 f4 [384]
00000000: 19c1 bebc 1869 ba3c 0f83 97bc c02a ce3c
00000010: 4e05 663d 4aa1 103d d149 9dbd b3f0 43bd
00000020: 2f37 64bd 6603 b8bc b57c 9f3d 6955 21bd
00000030: 2eda 23bc 2b77 7ebd 3af9 7ebd acc9 23bd
00000040: 24d1 95bd cf98 b23d 17d8 5ebc ce6f cb3c
00000050: 80cf f4bc 719a a83a 4cae 4e3d 3810 20bd
00000060: f51a 963d b661 cd3d 04ac c93c 07bd 1f3d
00000070: 112f 7d3d fe39 a0bb 4e4d 093c 465d 3d3c
00000080: 49c2 8d3d 366b 0fbc 532e 8f3d e130 95bd
00000090: 723b ed3c b984 12bd 6d66 5a3c ec5f 88bd
000000a0: 3fcb 723d ad16 34bd 360e a1bd 729b 3abd
000000b0: 45f5 afbc b0cc 993d b56c cebc 57d9 10bd
000000c0: cb94 813d 5b5d 6f3d 8445 503c c5a2 bbbc
000000d0: 1b6e 71bd 12f8 86bd 2652 8d3d 6160 84bd
000000e0: cff1 94bd 7b86 67bd 8362 92bd f6ad b53d
000000f0: 5cb6 82bd c641 053c a47c c0bc 9a0f ab3c
00000100: 8985 ffbb 1a67 c93c 755b c93c 4dda 123d
00000110: 77ac 623d 229f 3ebb 55d9 6a3d 08b7 54bd
00000120: dbca 583d 201b adba b57c 263c 2669 af3d
00000130: 7268 a43c 16cc df39 47f1 9cbd d05a 2f3c
00000140: db00 74bd 8d3b 1bbc 70a6 033c b531 773d
00000150: 8f0e 5e3d a308 623d aebb 90bd 5e12 00bd
00000160: e9e9 0c3d 90ef 473d aff2 193d 0c7c cf3b
00000170: 96e0 ae3d 827c c53b a77d c33d 1f05 fbbb
00000180: a948 873d 9739 a13d b436 1fbd 94b2 aa3d
00000190: 8c3f 8ebd 1ecc 213d d788 37bd 4cf9 60bd
000001a0: 31bd 2dbd 84b9 f1bc c81d 2cbd b048 a23d
000001b0: 1e12 85bd 43c0 693d 78a1 91bc 9845 e7bc
000001c0: 486a 3fbd c7ba d5bb 8ec2 d13c fb8d 823d
000001d0: aeac 70bd 6fdc b93c 6256 adbc 028a 19bd
000001e0: 9903 afbc 63c1 1fbd 3bb3 a3bd 45d3 a63d
000001f0: 8b77 863d 32cd 383c 2919 c93b f2aa ed3c
00000200: 3c1d b0bd 6c25 30bd e1a1 843c bdb5 96bd
00000210: 2ecc 5cbd f514 bdbd 6874 5fbd c5d2 2c3c
00000220: 6eda 8abd bb05 53bd ee90 5fbd c118 9dbc
00000230: a026 28bd 5f10 c83c 70a3 c4bd 5487 48bd
00000240: a44d 0c3d d7d6 3fbd 51a5 793d 1d42 323d
00000250: 5ff4 093d 0524 ae3d 845e a0bd 167e 76bd
00000260: 57f1 59bc c229 b13c ff30 adbc b9cc af3c
00000270: a97f a8bd 04ff 9ebd b0cd 943b 154b 1abc
00000280: 4bb2 313c ca7a 2bbd 8680 883d 98f4 c3bd
00000290: 7f14 613c 7526 9dbd 5941 7fbd 71f2 4dbc
000002a0: 412a 44bd 3c6d 00bd c849 90bd 9efd 64bd
000002b0: 250b b3bd 1c9f 573d f013 843d 0eee 9e3d
000002c0: 04a0 9cbd 3cc4 e33c 5be0 ac3d d016 1cbd
000002d0: 1d32 b3bd 51a5 d4ba 8713 48bd aa98 6f3d
000002e0: 69e3 9ebb 93e8 b1bd 7d86 e0bc b61b 5cbd
000002f0: 050d 9cbd b07e 03bd 055b babc 0756 a3bc
00000300: f283 6d3c 036d baba c314 64bd 7248 823d
00000310: f49c 6c3d 32f7 153d a281 29bd d8a9 9cbd
00000320: ea65 47bc e167 d0bd 26f0 a0bd daf2 76bd
00000330: 84a4 063d efcd b0bc 388b 15bc 66aa 663d
00000340: 4ff0 45bd 5d55 a23c 9a5f 74bd 307e cb3b
00000350: 0617 c0bc d3d3 a4bd 9897 86bc 7da9 453d
00000360: e91d 663d 19c6 09bd f616 77bd db5b 34bd
00000370: 59d8 a7bc 9f30 a03d 2444 513d 5c97 73bd
00000380: 8ce5 36bd 0e48 a0bb df6a 82bd b8f0 393d
00000390: cf61 ccbd 4c0a 98bd cffe bdbd 7f2a 3ebd
000003a0: 81d6 8ebc 4d2a a7bd 1031 873d 250b f13c
000003b0: 496b f73c dbe9 613d a48d abbc 853e 9ebd
000003c0: c490 363d 51a9 5bbd 0dc6 b2bc 8050 97ba
000003d0: f1ef dd3b db85 3cbc fc9a 5dbd 94ec 6cbc
000003e0: a056 f33c 1b10 9abc 7e6f 743d a5fb 303d
000003f0: b226 493d 8399 80bd 33d3 7fbd 94a7 e73c
-0.023285436 0.02275519 -0.01849511 0.02516687 0.056157403 0.035310067 -0.07680095 -0.04783697
-0.05571669 -0.022462558 0.07787458 -0.039388094 -0.010000749 -0.062125366 -0.0622494 -0.03998725
-0.07315281 0.08720552 -0.0136013245 0.024833586 -0.0298841 0.001286341 0.05045919 -0.039077967
0.073293604 0.100284025 0.024618156 0.03899863 0.061812464 -0.0048897257 0.008380247 0.011557883
0.069218226 -0.008753588 0.069912575 -0.072847135 0.02895901 -0.035771105 0.013330084 -0.06658921
0.05927586 -0.043966938 -0.07864039 -0.0455584 -0.021479258 0.07509744 -0.02519832 -0.03536352
0.06327208 0.05843864 0.012711886 -0.022904763 -0.058942895 -0.065902844 0.06900434 -0.06463695
-0.07272684 -0.056524735 -0.07147696 0.08871071 -0.063824385 0.008133357 -0.023496933 0.020881463
-0.007797901 0.024585295 0.024579743 0.03585272 0.055340257 -0.002908655 0.05733617 -0.051932365
0.052927833 -0.0013206936 0.010161568 0.08564977 0.020069335 0.0004268593 -0.076632075 0.010702804
-0.05957113 -0.009474647 0.008035287 0.06035014 0.054213103 0.055184018 -0.07067047 -0.031267516
0.03440276 0.04881245 0.037584957 0.006331926 0.0853893 0.0060268054 0.09545451 -0.0076605226
0.06605656 0.078723125 -0.03887053 0.08334842 -0.06945714 0.039501302 -0.044808235 -0.054925248
-0.042416755 -0.029507406 -0.04202059 0.0792402 -0.06497596 0.05706812 -0.01777719 -0.028231427
-0.046732217 -0.0065225097 0.025605466 0.06374737 -0.05875843 0.022688119 -0.021159355 -0.03748513
-0.02136402 -0.039002787 -0.0799317 0.08145765 0.0656577 0.011279391 0.0061370325 0.029012177
-0.08599326 -0.04300444 0.016190471 -0.073588826 -0.05390566 -0.09232513 -0.054554373 0.010548298
-0.067799434 -0.051519137 -0.054581575 -0.019176843 -0.04105246 0.024421869 -0.09601486 -0.048957184
0.03425373 -0.046835747 0.060948674 0.04352008 0.033680316 0.08502964 -0.078305274 -0.06017884
-0.013302169 0.021626357 -0.021141527 0.021459924 -0.08227474 -0.07763484 0.0045411214 -0.009417315
0.010845731 -0.041865148 0.06665139 -0.09568137 0.013737797 -0.07673351 -0.06231818 -0.01257001
-0.04789186 -0.031354174 -0.07045323 -0.05590593 -0.0874236 0.052641973 0.06449115 0.07760249
-0.07647708 0.027803533 0.0844123 -0.038107693 -0.08749793 -0.0016223585 -0.048846748 0.0584952
-0.0048488867 -0.08686938 -0.027407879 -0.053737365 -0.07619671 -0.03210324 -0.02274848 -0.019938482
0.01449679 -0.0014223162 -0.055683862 0.06361474 0.05776687 0.036612697 -0.041383393 -0.076495826
-0.012170294 -0.10176063 -0.07858305 -0.060290195 0.032871738 -0.021582572 -0.009127431 0.05631485
-0.04832488 0.019816095 -0.059661485 0.006210111 -0.023448478 -0.08048215 -0.016429707 0.04825734
0.05618087 -0.033636186 -0.06032463 -0.044032913 -0.020488905 0.07821774 0.051090375 -0.05947052
-0.044652507 -0.004891402 -0.0636804 0.045395583 -0.09979593 -0.07423839 -0.092771165 -0.046427246
-0.017436268 -0.08162365 0.06601155 0.02942426 0.030202525 0.055154663 -0.020941563 -0.077267684
0.044571653 -0.05362827 -0.021822954 -0.0011544377 0.006772988 -0.011506523 -0.054102883 -0.0144607015
0.029704392 -0.018806508 0.05967664 0.043208737 0.04910917 -0.0627928 -0.062457275 0.02827815

user_encoder.gru.weight_ih f4 [384, 129]
00000000: e2e2 ccbc 3323 973c 7e21 8ebc 4760 833d
00000010: f0c8 033d 355d 883d 8177 3abb cac2 81bd
00000020: b1d2 923c 8f9b 3cbd e385 8bbc 4ade b33d
00000030: 4711 acba 54c2 15ba 086b babc 2886 003d
00000040: ab2c ab3d 2291 4a3d 2388 97bd 73a9 a93d
00000050: ee28 763c 9cd2 573d d594 99bc b2b4 1fbb
00000060: 31ed c5bc ce49 863d 7ecf afbc 2bf0 e13c
00000070: ba51 333d 9627 f3ba c45b 32bd ce55 98bc
00000080: 471e 80bd 5503 cb3b 26b9 413c adc4 9dbd
00000090: 2361 8a3d 6b62 f93c 9d3b 883b 2b96 5a3a
000000a0: f863 113d f183 97bb 3ff0 ce3a 0342 343d
000000b0: 8147 1f3d 96e7 5cbd c939 15bc bfb0 633c
000000c0: 4567 973b 5b0e febc b26f a8bd 04f6 5d3d
000000d0: 8974 0b3d 94d7 403d d6dc 403b 8f44 e4bc
000000e0: 4f92 ef3c f9a2 ef3c 08ae 3e3d 3526 9bbd
000000f0: fc93 3fbd 1c6e bb3c 8799 443d 3609 653d
00000100: 6aca 043c 90b9 833d 3416 6ebd f237 143d
00000110: 017c 1cbd 104a a7bd 035b 2fbd bc7d d1bc
00000120: 592c 44bd 0e4c 3fbd 81ff 033d 3610 bc3d
00000130: 215d 94bd b063 a03d 26fd 103d 4aa6 01bd
00000140: 7c3b 1d3d eb1c a7bd 86a0 1bbd 1527 d83c
00000150: 7928 03bd b7dc 9fbc 4005 3bbd 09d8 8b3d
00000160: f302 603d cdbd 9d3d 126e 1a3d 608d 443d
00000170: e63a b13d 8198 893b c879 8fbd 038d bc3d
00000180: dcb6 0fbd 5503 95bb cd7a 77bd 73f5 d9bb
00000190: c7bd 85bd a212 ea3b 9153 05ba 26da edbc
000001a0: 96e5 72bc c0f7 98bd cca1 af3d cdb0 4a3d
000001b0: 7f49 343d 8cb4 9b3a b2f0 413c b739 43bd
000001c0: 950d 563d 05ed b43c 5ace e9bc fc4b 4bbd
000001d0: 9f07 8f3c d439 3dbd 2de9 64bd 934b a53d
000001e0: dd0f bdbd 7fca cc3c 649e a9bc b955 82bd
000001f0: 915a dabc 1f1d 1b3d 0ce0 6b3d ead5 1fbd
00000200: 42ab 54bd 6aa0 79bd 7640 0e3d 142f 663d
00000210: 957f 90bc 0742 933d 7ba9 8abc 74aa 113d
00000220: 94ae 70bd 038a 5ebc c886 7a3d 1c36 b63d
00000230: 153a a63d ff59 2dbd c37d a13c a548 85bc
00000240: 7626 63bd d53e af3c ba2c 093c 84e9 94bd
00000250: 1918 aabd a928 2cbd d5ea 563d cc30 9d3d
00000260: eef8 913d cda5 5c3c 6f36 8abd 8a2e 8fbc
00000270: e977 39bc 1016 d93c cea4 37bd a7cd b13d
00000280: ca02 463d 222a e5ba ae06 88bd 006d da3c
00000290: 9c7d 7f3b fc3c 833d cf1c 8f3c 3ec7 8c3d
000002a0: 0f94 09bb 1f99 0bbc 455c 2a3d 4bc8 22bd
000002b0: b7b2 84bd 5feb 6f3d 82eb b0bd 1323 163d
000002c0: dc04 79bd a5cf 0b3d c762 3a3d 2b08 cabc
000002d0: 9cb5 9dbd 5762 853d b4a3 5fbd 1e18 14bd
000002e0: 06a0 6dbd 2c1a 8c3d b2a7 35bd e634 16bd
000002f0: cd0d 3ebd 6899 5abd 966a 7a3d 05cb 163d
00000300: f07c cfbd d2bb 303c 13db b23d 8984 36bc
00000310: e4c8 40bd 9378 db3b 8e32 66bc c8e6 87bd
00000320: e0b7 d23b 7b2a 46bc fd14 6abb dbe1 063c
00000330: d128 773d e111 c3bc f042 103d fe3c 59bd
00000340: dd1e b33d 16b9 9e3c 01af 633d c4bf 28bd
00000350: 9b98 a8bd 46ee 963d f958 7c3c eea8 f4bc
00000360: 72f2 23bd 9786 373d 8b81 12bd 606a 31bd
00000370: a0db 873d f79f 31bd 6d40 11bd 38a1 61bc
00000380: 5e43 49bb 00a7 d93d 24f7 06bc 1c1b 7e3d
00000390: 2ea3 913d d1f9 8b3d 0acb 92bd 219f 293b
000003a0: 7295 90bd 3dc1 b4bd ef48 203c f0b2 c43c
000003b0: 3751 37bd cdc2 243d 68e9 423d 9eee 903c
000003c0: ad52 8a3d 94c6 72bd e75c 63bd 3ad8 c33c
000003d0: 2b7c adbd 26ca 853d a651 fd3c d280 fd3c
000003e0: 2b90 2b3c c54e b6bd 0b9a 0fbd 8d63 b9bd
000003f0: 4516 68bd f15c cfbd 8a0e 163d 39c1 923c
-0.02501053 0.018449401 -0.017349955 0.06414848 0.03217405 0.06658403 -0.0028452578 -0.06335981
0.017922731 -0.04604679 -0.017031616 0.08782633 -0.0013127708 -0.0005712856 -0.022756115 0.03137794
0.08358129 0.049454816 -0.07399013 0.08284273 0.015024407 0.052691087 -0.018747726 -0.0024369177
-0.024160953 0.06557046 -0.021461245 0.027580341 0.043779112 -0.0018551226 -0.043544546 -0.018595602
-0.06255775 0.0061954656 0.011823928 -0.077035286 0.067568086 0.030442437 0.004157497 0.0008338417
0.03549573 -0.004623883 0.0015788152 0.044008266 0.03888655 -0.053931795 -0.009108015 0.01389712
0.004620465 -0.031012705 -0.08224429 0.054189697 0.034046683 0.04708059 0.0029428503 -0.027864723
0.02924457 0.029252516 0.046552688 -0.07575647 -0.04677199 0.022879653 0.047997978 0.055916987
0.0081049 0.064318776 -0.058126643 0.036186166 -0.038204197 -0.08168423 -0.042811405 -0.02557265
-0.047893856 -0.04670339 0.03222609 0.091827795 -0.072443254 0.07831514 0.03539767 -0.031652726
0.038386807 -0.081598125 -0.037994884 0.026385823 -0.03202102 -0.019514425 -0.045659304 0.06828315
0.054690313 0.07702217 0.037702627 0.04798639 0.08653812 0.004199088 -0.0700565 0.09206583
-0.035086498 -0.0045475163 -0.060419846 -0.0066515743 -0.06530338 0.0071433345 -0.0005086 -0.029034685
-0.014825245 -0.074691296 0.08575782 0.049485017 0.044015404 0.0011879369 0.011837171 -0.047662463
0.052259047 0.022085676 -0.028540779 -0.04963301 0.017459689 -0.046197727 -0.055886436 0.08071055
-0.09231541 0.024998901 -0.02070541 -0.063640065 -0.026654514 0.03786957 0.057586715 -0.039022364
-0.051921137 -0.060944 0.034729443 0.05619724 -0.01763896 0.07190328 -0.016926518 0.035562947
-0.05876024 -0.013582709 0.061163694 0.08897039 0.08116547 -0.042322155 0.019713288 -0.016269991
-0.0554566 0.021392265 0.00837248 -0.07271102 -0.083053775 -0.042030964 0.052470047 0.07675323
0.07127558 0.013467264 -0.06748664 -0.017478246 -0.011320093 0.026499778 -0.044834904 0.08681803
0.048342504 -0.001748387 -0.06641899 0.026663303 0.003898478 0.06408116 0.017469792 0.0687394
-0.002099279 -0.008520394 0.0415919 -0.039741796 -0.064794 0.058574077 -0.086386696 0.036654543
-0.06079565 0.034133572 0.045504358 -0.024662098 -0.07700655 0.065128975 -0.05459948 -0.036155812
-0.05801394 0.068409294 -0.04434938 -0.03667154 -0.04639988 -0.053368956 0.061136805 0.03681471
-0.10131252 0.010786967 0.08733191 -0.011139997 -0.047066584 0.006697723 -0.014050139 -0.06635815
0.006430611 -0.012095089 -0.0035718076 0.008232559 0.06034166 -0.023812236 0.035220087 -0.053036682
0.08746121 0.019375365 0.05558682 -0.041198507 -0.08232232 0.07369666 0.015402072 -0.029865708
-0.040026136 0.04480609 -0.035768073 -0.043314338 0.06633687 -0.043365445 -0.03546183 -0.013771348
-0.003071032 0.10627556 -0.008237634 0.062037572 0.07111202 0.06834758 -0.07167633 0.0025882202
-0.070597544 -0.0882592 0.009783014 0.024011105 -0.044755187 0.04022484 0.047585875 0.017691907
0.067540504 -0.05927141 -0.05550852 0.023906816 -0.08470949 0.065326974 0.030922722 0.030945215
0.010471384 -0.08901743 -0.035059016 -0.09052191 -0.056661863 -0.10125149 0.03663496 0.017914401

user_encoder.gru.weight_hh f4 [384, 128]
00000000: fc7f b33d 8fb3 9fbd f3f4 0dbb 2d68 9dbd
00000010: 9a1e 693d 023e b8bd 7de6 053d da7e 273d
00000020: 0eb2 5e3d 4d8d 83bb a554 5b3d b632 61bd
00000030: f401 98bd 6bdb a63d 9cf6 2c3d c9f2 883d
00000040: b49a a4bd a094 86bc 040d 4a3d 79b1 40bd
00000050: 96a0 913d e119 8a3d a944 a23c e286 b33d
00000060: 7d23 083d 8c6a a1bd 4fe4 6c3d 94b2 50bd
00000070: c7d2 9b3d 3125 6fbc 4297 c9bc 0577 96bb
00000080: 6968 48bd 4d49 9abd 0696 883d b2a9 333d
00000090: ce4d 523d 6551 81bc 7d63 3d3c 5f6b bc3c
000000a0: 41ef 71bc b4f2 153d 5841 b5bd 8987 93bd
000000b0: 6090 0bbd 83f1 5abd 1f76 6bbd 3091 eabc
000000c0: 25ed 773d 94b1 a0bc ff93 8d3d de7e d0b9
000000d0: fda4 173b 4ccb 2abd 2e81 8abd 5403 003d
000000e0: 57c8 d53c f160 7cbd e245 433d 3ead 913c
000000f0: 7fbc ca3a 7b57 83bc d84c 8a3d 8e4e 84bd
00000100: 7590 28bd 038b 7b3d 2b9e 1f3d ae14 703d
00000110: 96ee 883d 4ad7 893d 41af 043d fa22 ef3c
00000120: 07c6 b9bb 9e2c 1ebc f8e2 8bbd feea 3fbc
00000130: 4300 98bd 2610 27bd e0e1 4d3d 07e4 323d
00000140: 770d 9d3c 5e85 92bb 4838 7dbd efb5 fdbc
00000150: 04ae f53c b75f 9d3d 978f c63c c3fd 61bb
00000160: 2c0d a53d cbfb 973b 9b6c a8bd fd2d 393d
00000170: 545c cbbc 6e34 803d 42d5 d13c 844e b7bd
00000180: b335 1fbd 8fda 073d 9bcb 97bd 87af b2bd
00000190: 3dfe a7bd 468b 963d fb07 403d 124c 06bc
000001a0: 6db9 28bd 35e4 893d e51c 8f3a 96ca 34bd
000001b0: 0a67 753d 98e5 653c 932c b93c 51f0 81bd
000001c0: 54a7 a3bd 8d55 b43d c42d aabd 0f4a b03d
000001d0: 593e 54bd a7b2 70bd 24a3 a63c 385a a0bc
000001e0: b2d2 9ebd 2879 bcbc 2041 833d 37bb 213d
000001f0: 16cd 973d 2180 c9bc 90f5 103d 16be a9bd
00000200: 0bb5 843d 62ad 84bd 0408 ce3d 5b21 b73d
00000210: 0702 92bc 5770 95bc dea1 e93c 3775 333d
00000220: 2d85 b13d 6779 52bd 2dcc af3d e118 9ebd
00000230: 76cc 243d 2e23 51bd a06f 4e3d f351 283b
00000240: a5fd 9b3d ad6f 853d 7fa4 92bd e846 73bd
00000250: df8d 523b 5692 56bd d834 793c 5b30 76bc
00000260: 4cd6 c83d 89bc 5f3c 07f1 503c 8754 03bd
00000270: 3d21 633d aa8e e8bc 8bed 953c 80fc 053d
00000280: 578a 0bbd e0bf b7bc f2a4 d93a 57c4 283d
00000290: 7383 b4bb adbd fa3c d408 073d f748 fbbc
000002a0: dfcf 32bd 7102 9ebd a5b2 b83c f4d6 22bd
000002b0: f66d d73c 4c8e 97bb 5b73 a53c d807 1e3c
000002c0: 25ed a53d 07fe ae3d 0aa5 8a3d 7c23 e3b8
000002d0: 5490 483d 3cda b0bc 66e4 a23d adbf 523c
000002e0: 0b11 93bd 8497 9b3b 9d47 4dbd 396a 0abd
000002f0: 6004 31bd 3848 d2bc 7cb6 353d 946d 763d
00000300: 48fb 3a3d 1b6d 82bd 646a cf3d c249 8f3d
00000310: ae6a 943d 58f1 c03d 48d0 023d 2c9a ab3d
00000320: 94d1 77bd f5ab 033b bdb3 13bc 7604 d3bc
00000330: 2678 bb3d 0755 983d b16c 9f3d 756e fcbc
00000340: 81b1 45bd 34b5 d93c d7a8 60bd 2b4d fc3c
00000350: 2664 753d b2ab 813c 568f 853d f213 3c3d
00000360: e00d 8dbb 60d7 fabc 8c58 88bd 96fa d33c
00000370: 06b7 e43c 24bd 093c 351d 233d c537 d9bc
00000380: 2712 283d 8ff8 a4bd 0828 66bd 2754 89bc
00000390: ee67 03bd 471f 96bd c777 04bc 8d1c 99bd
000003a0: 8bbd 98bc f0b1 92bd 9fa4 093d c394 2abd
000003b0: 93e0 3a3d 262e 87bc 1ce3 843b 9b02 7e3d
000003c0: bee8 843c 5fd5 103d 81f0 f63c a55e 3bbc
000003d0: cd75 33bc 5976 37bd db3d 9b3d c89a 62bd
000003e0: 93ac 0d3c eaa9 14bc 7067 983d 7338 98bd
000003f0: 6b92 2abd 5512 1b3d a8da debc bc2c 0abd
0.087646455 -0.0779792 -0.0021660894 -0.076858856 0.05691395 -0.08996202 0.032690514 0.04089246
0.054369025 -0.004014647 0.05354752 -0.054980002 -0.074222475 0.081473194 0.042227373 0.066869326
-0.0803732 -0.016428292 0.04932882 -0.04704425 0.071107075 0.06743217 0.01980813 0.08765961
0.03323697 -0.0788165 0.05783492 -0.050951555 0.07608562 -0.0145962695 -0.024608258 -0.004591825
-0.0489277 -0.07533512 0.0666924 0.043863006 0.05134373 -0.015785882 0.011559364 0.023000417
-0.014766515 0.036608413 -0.08850354 -0.07203586 -0.034073234 -0.05345298 -0.057485696 -0.028633684
0.060528893 -0.019615926 0.06912994 -0.00039767375 0.0023139112 -0.041697785 -0.0676292 0.031253174
0.026096506 -0.061615888 0.047674067 0.017782804 0.0015467553 -0.016032925 0.06752938 -0.064602956
-0.04115339 0.06141187 0.0389692 0.05861347 0.06686132 0.06730516 0.032393698 0.029191483
-0.0056693587 -0.009654192 -0.068304 -0.011713741 -0.07421925 -0.040786885 0.05026424 0.043674495
0.01917146 -0.004471465 -0.061821252 -0.030970542 0.029990204 0.07684272 0.02423839 -0.003448353
0.08059153 0.0046381704 -0.0822384 0.045209873 -0.024824299 0.0626 0.025614385 -0.089505225
-0.03886957 0.033167418 -0.074118815 -0.087248854 -0.08202789 0.07350783 0.04688261 -0.0081968475
-0.04119246 0.0673298 0.0010918645 -0.044138514 0.05991272 0.01403179 0.022604262 -0.06344665
-0.079909 0.0880538 -0.0830951 0.086078756 -0.05181727 -0.058764126 0.020341463 -0.01957427
-0.07755031 -0.02300699 0.06408906 0.039485183 0.07412164 -0.02459723 0.035390437 -0.08288209
0.06479844 -0.06478383 0.100601226 0.08941909 -0.017823232 -0.018242044 0.028519567 0.043812957
0.086679794 -0.05138531 0.08583865 -0.07719589 0.04023405 -0.05105894 0.050399423 0.0025683611
0.07616738 0.06515441 -0.071602814 -0.059393793 0.0032128019 -0.05238565 0.015210353 -0.015026177
0.09806499 0.01365579 0.012752778 -0.032063033 0.05545162 -0.02838834 0.018301746 0.032711506
-0.034067478 -0.02243036 0.0016604944 0.04120287 -0.005508834 0.030608023 0.032967404 -0.03067444
-0.043655273 -0.077153094 0.022546122 -0.039755777 0.02629755 -0.0046251174 0.020196607 0.009645425
0.08101872 0.085445456 0.0676976 -0.00010830813 0.048965767 -0.021588437 0.0795372 0.012863082
-0.07180985 0.0047482867 -0.050117124 -0.033792708 -0.043217063 -0.025669202 0.044363484 0.060163096
0.045649797 -0.063684665 0.10127714 0.0699649 0.0724691 0.09421033 0.031936914 0.08379015
-0.060502604 0.0020091508 -0.009015021 -0.025758963 0.09153776 0.07438093 0.07784403 -0.030814389
-0.048264984 0.026575662 -0.05484852 0.030798515 0.059909962 0.015828941 0.0652148 0.04591746
-0.0043046325 -0.030620277 -0.06657514 0.025876325 0.027919304 0.008406911 0.039822776 -0.02651585
0.041032936 -0.08055221 -0.05619052 -0.01676376 -0.032081537 -0.073301844 -0.008085198 -0.07476149
-0.018645069 -0.07162845 0.03360426 -0.041645776 0.045624327 -0.016501497 0.004055394 0.062014204
0.016224261 0.035359737 0.030143978 -0.011436139 -0.010953379 -0.0447906 0.07580157 -0.055323392
0.008647102 -0.009073714 0.07441604 -0.07432642 -0.04164354 0.03785928 -0.027203873 -0.03373407

user_encoder.gru.bias_ih f4 [384]
00000000: f303 643d a99d 7cbd 4f04 adbd 3b99 70bd
00000010: 7e49 edbc b285 39bc d7ad 113d 4a7d b73d
00000020: b65d fcbb a56f 1ebd fa57 cf3b 7a01 5a3d
00000030: 4e5f 7c3d 5a29 4ebd 755c 993b 9954 403d
00000040: bb5d 1f3d 0889 93bb 93bb 64bd 3e38 40bd
00000050: 6759 943d 6582 13bd 451d ee3c 88fd c0bd
00000060: 54b8 d9bc f510 80bc 45bb 8f3c 6f84 aa3d
00000070: 3fbc dd3b 5f1c 0cbc 6f65 b43d 70b0 9c3b
00000080: 4631 99bc 9eef b33d fb56 02bd 5b4f 863c
00000090: ad7c 83bd 0b62 86bd ca46 863c a30f 0fbc
000000a0: 6da3 35bc f3ff e63c cc93 55bc e8c1 2a3d
000000b0: 016c 5bbd 2b3a 32bd 491e 833d b153 8e3c
000000c0: 721a b83c d571 20bd c579 abbc 5488 9a3d
000000d0: 6b88 7cbd 6ac9 99bd c6a3 c93d 27c7 85bd
000000e0: 3ed7 d0bd 8206 25bd 9514 8bbd 322e 0b3d
000000f0: 2467 d0bd fdba 8abd 2738 b8bb f2be 55bd
00000100: b23f 8cbd 7136 063d ed06 0b3d 5595 3b3d
00000110: 61c5 fd3c 733b 903d 6b29 3abd aadd fc3b
00000120: 096b 07bd e6f2 84bd 9352 b6bd d5f3 bfbc
00000130: 4342 b03d a786 703d f896 efbc 725a 16bd
00000140: dad9 94bd 637d 143d 6124 01bd 312f 99bd
00000150: 649a 6bbd 1844 45bd 5306 823d b8f2 453d
00000160: 560c a1bd 34b3 4c3d daff e03c f4aa 7ebd
00000170: 984c 773d 7141 46bb 2de1 113d d66b a03c
00000180: c6ab a13d 2ba5 913d ee67 2c3d b99c 5ebd
00000190: ff51 0dbd 55e7 debc 26c2 133d adff 1ebc
000001a0: b001 bcbd 618e d5bc 90d2 803d 687e 5cbd
000001b0: 4367 db3c 8710 96bd 94f9 5abd 4f0d f0bb
000001c0: 1ae4 37bd 95f1 4c3d 76f8 88bc 7fd1 973d
000001d0: 461c 01bd c6c5 483d a83c 853d f37f d53d
000001e0: f411 cd3c b9b8 31bd 676f 2ebd cf57 a23d
000001f0: 331b 9b3c c946 9a3d e61b e73b d64a 943d
00000200: 4cf2 a03d 8570 15ba 55c3 9abd 91ab 863d
00000210: fe68 06bd c348 50bd c8ba 843d 1cfd 33bd
00000220: 29a6 e5bc c590 8bbd ddc3 883d 788e 593c
00000230: 604c 183d 6e58 243d ef54 bcbd 4929 4fbd
00000240: 95e8 9d3d a511 f4bb 8483 ffbc d812 82bd
00000250: 2d2f 16bb d245 9a3b 3ef7 6cbd aa8c 523b
00000260: 92b6 02bd 5213 92bd 8a1d 013d 39c0 a03d
00000270: 500f 34bd 5c0b f1bc be09 7fbd c832 09bd
00000280: 01f0 543d 894f bbbd 850c bcbd 7ad4 3b3d
00000290: 2481 0bbd f9f6 403d 1395 6cbd 0bdb ea3c
000002a0: 020d 553d 8254 ab3d 9d5c 5bbd c6a8 96bd
000002b0: 3582 bf3d ce10 d8bc f647 2f3d cb70 89bd
000002c0: ab9e 1f3d e8fd dfbc 076f 2ebd 53b7 143d
000002d0: 3f47 593d 5895 9dbd 827b 593c e92e 7a3d
000002e0: 783e 44bc 75d9 8ebd 3b16 97bc c6a0 53bc
000002f0: addc 8cbc b96c 4fbd fd21 53bd 5257 8f3d
00000300: 41c9 03bc 320b 613d 3106 b33d 8c49 05bd
00000310: d446 9a3c 29d6 023c 07bb 91bc fb18 5fbd
00000320: 2831 393d 71ec 32bd 80ab 63bc 58d6 38bc
00000330: be6d 8dbd 77b8 98bc e90d 283d c321 92bd
00000340: 0487 92bc 4371 6c3d 7d94 60bd 0b15 04bd
00000350: 9f83 0f3d 38c2 7bbd 33bf 7b3d a1b9 25bd
00000360: d695 d1bd b571 a4bb 08cf 013c fd31 833d
00000370: 7e33 0b3c ae69 21bc ed6a 1fbd a9d9 90bc
00000380: d498 99bc 051f 6e3d d713 86bd cfcc 1bbd
00000390: c892 553d 98aa bf3d 07a8 a33d abb0 993d
000003a0: f8b8 213d eceb 0b3d 8c21 8dbd a440 02bc
000003b0: feed f7bb 9201 b73c 14ea b13c ab1e 943d
000003c0: 7c8a 65bd e2c1 39bc ed04 5c3d fdf4 933b
000003d0: 47e5 b23d 874b ad3d dbdd ccbd 33a9 2cbd
000003e0: 0b2d 3abd 5958 11bc a2a0 21bd a9f2 5e3d
000003f0: aad0 cc3c 9b7d 31bd b1c9 4a3d 7dd7 95bd
0.05566783 -0.061673794 -0.084480874 -0.058739882 -0.028965708 -0.011323379 0.035566177 0.08959444
-0.007701601 -0.03868069 0.0063276263 0.053224064 0.061614327 -0.050332405 0.004680211 0.04695568
0.038907748 -0.0045024194 -0.055842947 -0.046928637 0.07243615 -0.036013026 0.029066691 -0.09423357
-0.026577152 -0.015633086 0.017545352 0.08326041 0.0067668254 -0.008551686 0.088084094 0.004781775
-0.018700253 0.08785938 -0.031821232 0.016395262 -0.064202644 -0.06561669 0.016391177 -0.008731755
-0.011086327 0.028198218 -0.013035726 0.04168883 -0.053569797 -0.043512505 0.06402261 0.017373892
0.022473548 -0.03917106 -0.020932088 0.07545534 -0.061653536 -0.0750912 0.098456904 -0.06532126
-0.10197304 -0.04028941 -0.06791035 0.033979602 -0.101759225 -0.067739464 -0.0056219283 -0.052184053
-0.068480864 0.032766763 0.03394215 0.04579671 0.030977907 0.07042589 -0.045449656 0.007716854
-0.03306106 -0.06491642 -0.089024685 -0.023431698 0.086063884 0.058722164 -0.029246792 -0.03670735
-0.072681144 0.03625239 -0.031528834 -0.07479704 -0.057520285 -0.048160642 0.063488625 0.048327178
-0.07863681 0.04997559 0.02746575 -0.062174752 0.06037578 -0.0030251408 0.035615135 0.01958267
0.07894091 0.071115814 0.042091303 -0.05434868 -0.034502026 -0.027209917 0.036073826 -0.009704513
-0.09180009 -0.026068868 0.062901616 -0.053831488 0.026782637 -0.07327371 -0.053460672 -0.0073258053
-0.04489527 0.050035078 -0.016720038 0.07413005 -0.031521104 0.049016736 0.0650571 0.10424795
0.025032975 -0.043389056 -0.04258671 0.079269044 0.018933868 0.075330324 0.0070528863 0.07240836
0.078587145 -0.00057006656 -0.07556788 0.065756924 -0.032814972 -0.05085064 0.06480938 -0.043942556
-0.028033333 -0.06814722 0.06677983 0.013278596 0.037182212 0.040123396 -0.09195887 -0.050576482
0.07710377 -0.0074483925 -0.031190641 -0.063512504 -0.0022916303 0.0047080303 -0.057852976 0.00321273
-0.031912394 -0.07132591 0.03152231 0.078491636 -0.043959916 -0.029424362 -0.06226515 -0.033495694
0.051986698 -0.091460295 -0.091820754 0.04585693 -0.034058705 0.04711053 -0.057759356 0.028668901
0.05201436 0.08365728 -0.05355512 -0.0735641 0.09351007 -0.0263752 0.042793237 -0.06710967
0.038969677 -0.027342752 -0.042586353 0.036307644 0.05304646 -0.07694501 0.013274075 0.061079893
-0.011977784 -0.069750704 -0.018443218 -0.012916749 -0.01719507 -0.050640795 -0.051546086 0.06999077
-0.008043588 0.054942317 0.08741415 -0.032540843 0.018832602 0.00798563 -0.017789377 -0.054467183
0.045212895 -0.04368252 -0.013895869 -0.011281572 -0.06905697 -0.018642647 0.04102889 -0.07135346
-0.017886646 0.057725202 -0.05482911 -0.03224663 0.035037633 -0.06146452 0.06146164 -0.040460233
-0.10233657 -0.0050184377 0.007922895 0.06406019 0.008496163 -0.009851856 -0.03892033 -0.017681913
-0.018749632 0.05813505 -0.06546753 -0.038037118 0.052141935 0.0935871 0.07991033 0.075044
0.03948304 0.03416054 -0.06891164 -0.007949982 -0.0075662127 0.022339616 0.021718062 0.07232412
-0.056040272 -0.011337729 0.053715635 0.004515289 0.087351374 0.08461671 -0.10003253 -0.04215355
-0.045453113 -0.008871161 -0.039459832 0.054430638 0.025001843 -0.043332677 0.049508754 -0.07316492
