Temporal_Graph/tmp/best_model.pt (torch, 933813 bytes, 13 tensors)

comment_encoder.gru.weight_ih_l0 f4 [384, 129]
000000 74 4e 22 bd e4 37 1e 3a 92 a5 5c 3c 51 a0 1f 3b
       -0.0396256 0.000603555 0.013467209 0.002435703
000010 d0 87 b4 3b 14 3f e1 bb 6a 7c 42 3b 54 7a 33 3b
       0.005509354 -0.0068739746 0.0029676207 0.0027386146
000020 71 db 1e bb f9 bc 71 3b 9f ca 9d 3b a9 d0 0a 3c
       -0.0024239684 0.0036886318 0.004815414 0.0084726
000030 63 9a e9 ba 92 48 cf b9 13 a5 cc 3a 14 ae bf bb
       -0.00178225 -0.00039536186 0.0015613161 -0.005849609
000040 d7 cd 9c bb 49 96 0e 3c 73 ad 86 3b 0c b8 4b 3b
       -0.00478528 0.008702823 0.004110032 0.0031085042
000050 0e fc 98 bb a9 e8 fc ba 51 88 08 3b 9e 6d 1a 39
       -0.004668719 -0.0019295412 0.0020833204 0.0001472742
000060 5f 03 d3 3b 1c c2 2d 39 2a 4a ad 3b 6e 28 2d 3a
       0.006439611 0.00016570877 0.005288382 0.0006605451
000070 0f 58 01 3b 76 ab f9 3a 38 ed 69 3b 77 34 64 ba
       0.0019736325 0.0019048292 0.0035694372 -0.00087053276
000080 42 c7 1b 3b 39 ae ca 3b ec 3d dd 3b a5 35 d4 3b
       0.002376989 0.0061853197 0.0067517664 0.0064761215
000090 d9 cd 4e 3b 38 78 08 bb b7 74 a2 3b 96 7d ae 3b
       0.00315558 -0.002082361 0.004957761 0.0053250296
0000a0 16 a9 c6 3b 9f 05 fc ba 5b c1 c9 3a 51 55 b4 3a
       0.006062637 -0.001922775 0.0015392707 0.0013758336
0000b0 23 cb 19 3b 45 87 2f bb 4c e5 9b ba fa 91 71 b8
       0.0023467026 -0.0026783508 -0.0011893897 -5.759483e-05
0000c0 62 93 9d bb 60 72 39 3b 14 f4 03 bb f1 51 14 3b
       -0.004808829 0.0028296933 -0.0020134496 0.0022631849
0000d0 cf 48 dc 3a 8f 08 c5 b9 a8 44 31 3b 65 0d 7a bb
       0.0016806367 -0.00037581145 0.002704898 -0.0038154956
0000e0 ab 82 1e bb 08 fd 42 3b e2 e0 22 3b 29 71 d3 3a
       -0.002418677 0.002975287 0.002485328 0.0016131747
0000f0 32 3b 3e bb 60 31 a3 3a 18 76 b6 ba 59 30 62 3a
       -0.0029026982 0.0012450628 -0.0013920693 0.000862842
000100 24 af ff 3b 42 1b 1a 3b 27 2e 1b 3a 75 85 ed 3c
       0.007802861 0.0023514782 0.0005919658 0.028994301
000110 ad 0f 59 3d 65 1b 33 bc f8 89 7d bd 37 7f 87 38
       0.052993465 -0.010931824 -0.061899155 6.460997e-05
000120 7a 86 22 3b ec c5 58 3c b7 78 f2 bb a1 8f 3d 3c
       0.0024799393 0.013230782 -0.0073996442 0.011569888
000130 f7 5c af bc 12 5d 2a 3c 67 5e 23 bb 38 d5 9c ba
       -0.021406634 0.010398166 -0.0024928094 -0.00119654
000140 8e fb fa ba a2 60 a8 3b 17 9d b7 3b 7c b3 55 3c
       -0.0019148455 0.0051384727 0.0056034434 0.013043281
000150 72 9d 13 37 e0 4b c4 3b 93 14 00 3b a0 da a5 3b
       8.798541e-06 0.0059904903 0.0019543513 0.0050614625
000160 a1 36 88 3a d8 a3 29 3a 20 79 13 3b b8 04 a5 39
       0.0010392257 0.0006471253 0.0022502616 0.00031474768
000170 b6 9a 00 b8 ec 59 e5 37 6f 33 9b 3c 90 34 68 bc
       -3.0661664e-05 2.73408e-05 0.018945424 -0.014172688
000180 b5 d5 cb 3c ab d1 44 3c a5 7a 44 bc 7e b1 9a 3c
       0.024882177 0.012012879 -0.011992131 0.018883463
000190 d9 75 7b 3c e0 2d a9 3c d3 9b 8d bc 8c 49 05 3a
       0.015347921 0.020651758 -0.017286217 0.00050845067
0001a0 fd 93 8e ba 67 68 17 bb 62 fa 01 bc 99 f1 e1 3c
       -0.0010877844 -0.0023103 -0.007933231 0.027581023
0001b0 93 43 47 bc d0 ff 27 bc 3c 70 8d b7 95 8e 02 3c
       -0.012162107 -0.010253862 -1.6860773e-05 0.0079685645
0001c0 55 84 b9 3c 18 83 49 bb eb 31 cf 3b 49 5f d9 bc
       0.022646109 -0.0030748304 0.0063230894 -0.026534693
0001d0 81 64 ad bc 73 2e 09 bd 11 eb ec bc 45 7a 19 bc
       -0.021166088 -0.033491563 -0.028920682 -0.00936753
0001e0 32 bb 71 3a 6a 14 ee b8 15 fb 33 36 00 e1 b0 ba
       0.00092213147 -0.00011352527 2.6819228e-06 -0.001349479
0001f0 43 47 56 b5 a6 a0 39 bb 72 76 60 38 d5 cd b0 ba
       -7.982491e-07 -0.0028324514 5.3516073e-05 -0.0013489077
000200 63 49 46 bc b3 f5 19 3c 3a 3c d7 bb f6 31 70 bc
       -0.012102458 0.009396958 -0.006568459 -0.014660349
000210 ba 95 07 3b 03 18 44 3a a3 94 80 bb 40 e9 32 3b
       0.002068861 0.00074803847 -0.003923969 0.0027299672
000220 c4 a1 72 3a 9e c4 39 b9 90 18 8f 3b 6d 19 ef 3a
       0.00092556723 -0.0001771622 0.0043669418 0.001824183
000230 2d 48 69 3c d2 43 dc ba 09 c2 38 3a 25 c5 c8 3a
       0.014238399 -0.001680488 0.00070479565 0.0015317543
000240 4a 29 c1 3b b4 34 bd 38 42 76 4b 3c 3a 66 ec 3a
       0.0058948146 9.022039e-05 0.012418332 0.0018035837
000250 0e 22 d3 39 b6 6a ad 3a 84 7a 3e b9 24 99 78 3a
       0.0004027043 0.0013230655 -0.00018165453 0.0009483269
000260 3e b2 99 39 b0 f5 8d 3b c6 0b 3a 3a 80 22 e9 bb
       0.00029315235 0.0043322667 0.00070970913 -0.0071147084
000270 3c 83 0a bb 06 90 37 3b 22 31 09 3a 46 f4 6b bb
       -0.002113535 0.0028009429 0.00052334566 -0.0036003753
000280 f7 01 7f ba 2f 6a c7 3a 61 a2 45 3c c5 0e 8c 3b
       -0.0009727771 0.001521414 0.01206264 0.0042742216
000290 78 c2 fc bb e5 6e d9 3a 4f 2e dd b9 23 ca 1e 3c
       -0.007713612 0.0016588835 -0.00042186907 0.009691748
0002a0 6d b9 16 3b e4 8e 9d 3b d4 d7 e4 ba bc 39 ee 39
       0.0022998706 0.0048082937 -0.0017459341 0.00045437913
0002b0 33 74 02 3b ba c3 00 ba 49 a9 2c bb 2b e9 a0 ba
       0.0019905686 -0.0004911978 -0.002634602 -0.0012276521
0002c0 51 40 15 39 cb 6d 94 ba 6f 5d dd 3a 23 77 91 ba
       0.00014233707 -0.0011324225 0.0016888807 -0.0011098128
0002d0 dd dc e2 3a ea fb 93 3a a2 7f f0 b9 75 f9 8f 3a
       0.0017308254 0.0011290286 -0.0004587146 0.0010984378
0002e0 74 a2 0b bb a4 7e fe ba 93 5d 82 3b 05 b0 e8 3a
       -0.0021306546 -0.0019416404 0.00397844 0.0017752653
0002f0 65 a4 c5 3a cf b2 74 ba c9 3c b8 3a eb 71 13 bb
       0.0015078901 -0.0009334506 0.0014056201 -0.002249832
000300 18 2b 60 bb dd 37 c7 ba 04 18 9b b7 eb 14 92 3a
       -0.0034205373 -0.0015199144 -1.8488623e-05 0.001114515
000310 cb 07 97 3c 53 dc 18 3c 4d 11 19 bb 56 19 b5 bc
       0.018436333 0.009329873 -0.002335626 -0.022106808
000320 b4 a4 2c 39 d5 2e df 3a b2 0d 35 3d 44 3d a8 bb
       0.00016464555 0.0017027507 0.044202514 -0.0051342566
000330 da 7d 9a 3b c0 04 11 bc 03 2e 7c 3b 20 f8 9f 3a
       0.0047147097 -0.00885123 0.0038479574 0.0012204684
000340 08 04 b2 3b 35 ec 1e bb 9d c5 f0 b8 98 65 bd 3a
       0.0054326095 -0.0024249677 -0.000114809 0.0014449833
000350 43 d1 37 3c 2a 0d 61 3b 6d a2 de 3b 6a e9 ff b7
       0.0112193255 0.0034340122 0.006794265 -3.050706e-05
000360 fe cb 70 3b 2c f6 99 3a fa 9d b4 38 55 19 9c 39
       0.0036742683 0.0011746339 8.612494e-05 0.00029773513
000370 21 2b e4 39 09 5f ed b8 86 c2 85 b9 67 c8 6e bb
       0.00043519682 -0.00011318742 -0.00025512668 -0.0036435367
000380 d9 88 32 3c 6e 4e 6a 3c 31 e5 00 3c 8c 33 2f bd
       0.010896885 0.014300926 0.0078671435 -0.04277377
000390 b7 42 be 3b 4a 7d 0f 3c c4 78 35 3c 51 60 4d bc
       0.005806293 0.008757899 0.011076156 -0.012535171
0003a0 ad ae c5 b8 16 28 08 3a 80 59 7a ba b3 7b 67 3b
       -9.426228e-05 0.00051939616 -0.00095500797 0.0035321533
0003b0 37 63 81 3c c1 e9 85 bb 8e 05 be bb 71 05 d6 39
       0.01579438 -0.0040867035 -0.005799002 0.00040821315
0003c0 63 2f 42 3b 4d 1e fc 3b 03 8c 89 3b a5 07 e4 3b
       0.0029630295 0.007694042 0.004197599 0.006958919
0003d0 59 dd e9 bc 89 04 71 bc e5 6b 8a bc 38 5e 52 bc
       -0.02854793 -0.014710554 -0.016897151 -0.012839846
0003e0 86 a3 c3 bb 7c 1b 9a 3a e5 2b 6a 38 30 48 21 b6
       -0.0059704212 0.0011757459 5.5830827e-05 -2.4032888e-06
0003f0 0e 03 22 ba dd 5b f0 34 24 eb c0 bb 84 e1 ca b6
       -0.0006180265 4.4770323e-07 -0.005887406 -6.0463226e-06

comment_encoder.gru.weight_hh_l0 f4 [384, 128]
000000 de 40 8c bb 64 ef 1e 3a e5 17 90 3b d6 13 10 3b
       -0.0042801937 0.00060628937 0.0043973797 0.002198448
000010 c5 ba 54 bc 04 61 ce ba d4 24 24 3c 85 1f 34 3b
       -0.012983982 -0.0015745466 0.010018546 0.0027484607
000020 38 7d 0e bc 1b d3 12 3c a9 df 2a bc 8e 42 f1 3a
       -0.008696847 0.008961464 -0.010429301 0.0018406676
000030 48 49 59 bc 14 26 73 ba 24 33 31 3c 3f 9e 86 3b
       -0.0132621005 -0.00092753884 0.0108154155 0.00410822
000040 73 ec be 3a e4 78 4d ba e3 e9 58 3c 03 69 57 3a
       0.0014566317 -0.00078381435 0.013239357 0.0008217247
000050 09 d7 ca 3b 74 52 86 3c 06 91 e4 3b 71 76 cd 3b
       0.006190185 0.016396739 0.006975296 0.006270223
000060 3a a0 92 bb 9c 4f e9 bb b9 df 74 3a fd 4b 2f 3b
       -0.004474667 -0.007120086 0.00093411986 0.0026748173
000070 2a 20 a2 bb 72 68 29 bc b3 70 3f bc 1b 20 04 bc
       -0.004947682 -0.010339843 -0.011684584 -0.008064295
000080 68 af 89 ba 68 14 1d 3c e9 92 43 bc 7c 2b d3 3b
       -0.0010504546 0.009587385 -0.011936882 0.0064443927
000090 df 60 3d bc 83 b9 41 3c 9a 50 47 3b 46 2a 1d 3a
       -0.01155874 0.011824015 0.0030413033 0.0005995374
0000a0 f0 b9 b3 3b 0a d5 a9 bb 58 1c 9c bc 1a 39 06 bc
       0.005484812 -0.005182867 -0.019056484 -0.008192325
0000b0 61 3b ac 3a 54 92 ee bb 5b 0b 1b bc c6 7d e5 3b
       0.0013140255 -0.0072806273 -0.009463157 0.0070035188
0000c0 c9 a8 65 bb e9 36 0c 3c 40 af 44 3b 86 5b 42 3b
       -0.003504323 0.0085580135 0.0030011684 0.0029656603
0000d0 f5 12 0d bc 13 01 71 b9 3b 3c 5d bb f1 68 8d 3b
       -0.008610477 -0.00022983951 -0.0033757824 0.0043154885
0000e0 4f d9 2b 3c a6 06 1c bc 39 6f dc ba 47 9a 17 bb
       0.010488822 -0.0095230695 -0.0016817815 -0.0023132728
0000f0 e0 4a 3e b9 ea f1 03 3b c1 9d 39 3c bd 95 1a 3c
       -0.00018147705 0.0020133206 0.011329115 0.009435114
000100 3f 18 c6 3b 39 c6 95 3b 1b 6c c8 bb 85 75 0f bc
       0.006045371 0.004570749 -0.006116403 -0.008756046
000110 a3 cc e5 3b 23 51 73 3b 62 ab 12 3c 62 b1 39 bc
       0.00701292 0.0037127219 0.008951994 -0.011333795
000120 ea c7 10 3c c7 5d 75 bb 01 b5 5f bc 34 dc 01 3c
       0.008836726 -0.003743993 -0.013653995 0.007926036
000130 71 a1 c3 bb 88 ee ae 3a 04 9e 7a 3b 07 3e 33 3c
       -0.005970173 0.0013346234 0.0038241157 0.010940081
000140 aa 31 12 3b 52 98 11 3c ac e5 a7 bc 6c 50 26 bc
       0.0022307434 0.008886414 -0.020495258 -0.01015101
000150 24 6b 9c 3a e6 e5 bc bb b7 44 4b bb 56 9d 99 3b
       0.0011933786 -0.0057647107 -0.00310163 0.0046879454
000160 1c cc 52 bb 7c 27 0d bc 84 9a f1 bb 09 59 16 3a
       -0.0032165116 -0.008615371 -0.007373156 0.0005735313
000170 5c 83 08 3b 85 7b b2 3b 27 ff cf bb e3 4a 34 3c
       0.002083025 0.0054468536 -0.006347555 0.0110041825
000180 fc 7c 42 bc 32 64 97 3b 71 6b ba 3b 7b 03 54 bc
       -0.011870619 0.0046200985 0.0056890775 -0.012940283
000190 1b 26 2a bc ce 02 43 3b 5d dd 8a bc d9 d9 6f 3a
       -0.010385062 0.002975631 -0.016951257 0.00091495883
0001a0 99 2b db 3b 6d 86 ab 3b c9 31 c7 bc ce 16 81 bc
       0.006688547 0.0052345307 -0.024315732 -0.015757944
0001b0 7b c8 76 3b 11 24 bd ba 4d 1c b5 3a 98 c3 90 3c
       0.0037656117 -0.0014430304 0.0013817638 0.017671391
0001c0 e2 fc ee 3b a4 1b 57 bb 0e 6d 7d 3c bb a4 85 3b
       0.0072933296 -0.0032822872 0.015467895 0.0040784753
0001d0 84 ba b8 3a e3 f8 87 3c 60 87 1b bc b1 d8 ab 3b
       0.0014093672 0.01659817 -0.009492725 0.0052443375
0001e0 21 48 19 3b ad b1 e2 3c 32 52 d6 3b f2 7e 74 3b
       0.002338894 0.027672613 0.00654056 0.003730711
0001f0 c9 ed 2c bc 1e e5 d6 bb 54 85 60 3c 1f 8f 1d bc
       -0.010554739 -0.0065580746 0.013703663 -0.009616642
000200 74 b6 92 bb 06 46 12 bc 10 e7 00 3c b0 54 bf bb
       -0.0044773165 -0.008927828 0.00786759 -0.005838953
000210 e7 40 04 bc 20 30 81 bb 3b 80 d7 3b 26 fc a3 3c
       -0.008072115 -0.0039425045 0.0065765656 0.020017695
000220 0d 48 f5 bb 6f f2 8d 3b 7f 37 21 3c 3c a3 5d 3a
       -0.0074853958 0.004331879 0.009839891 0.0008454805
000230 5f 3d c5 bc 70 89 ab b9 e3 d4 d3 3b ac 38 b9 3b
       -0.024077116 -0.0003271806 0.006464587 0.0056525078
000240 b6 2d 45 ba 5b b8 8f bb cb a5 45 3c 59 ce 89 3c
       -0.0007521765 -0.0043859906 0.012063454 0.016822027
000250 a3 00 47 3b 31 ba 72 bc a3 79 04 3c 6f c1 fc 3b
       0.003036537 -0.014814899 0.008085641 0.007713489
000260 bb c2 f1 bc fb 5a 70 3c 94 1f 12 3a 46 f6 4b ba
       -0.0295118 0.014670129 0.00055741635 -0.0007780533
000270 8f d4 94 bb 64 95 ee bc e2 10 47 bc 19 e7 83 bb
       -0.0045419405 -0.02912397 -0.012150021 -0.0040253517
000280 72 7f 91 bc 7b 81 63 bc 6e c5 06 bc b2 c2 db ba
       -0.017760966 -0.013885851 -0.008225782 -0.0016766398
000290 02 9c a7 bc be f3 f3 3c 89 de 0d 3c c2 c9 21 3b
       -0.020460133 0.029779311 0.008659014 0.0024686907
0002a0 cc 90 02 3c ae ee fb bb 84 b3 1d bd 13 20 ce bb
       0.007969093 -0.007688365 -0.038501278 -0.0062904446
0002b0 2f 68 0a 3c aa fe 1e bb b1 6d 03 bc cc 30 f9 3b
       0.008447691 -0.0024260678 -0.008021758 0.007604694
0002c0 8b be a9 bb ce 52 4b 3c bd 72 4f bc 15 c6 ed 3c
       -0.005180185 0.012409879 -0.012661633 0.029025117
0002d0 16 9a 1e bb ed d4 c8 3b ad 67 68 bc f5 f2 9f b9
       -0.002420073 0.0061288984 -0.0141848745 -0.0003050786
0002e0 e1 e1 a2 3b d0 56 d4 3b e4 d7 17 3c 47 be 78 3b
       0.0049707745 0.0064800754 0.009267781 0.003795521
0002f0 59 76 c2 bc 8a 75 aa bc 51 75 57 3b 69 a9 9a 3b
       -0.023738073 -0.020808 0.0032876323 0.0047199023
000300 7a 32 c8 3b 99 1b 60 3b 9d c5 02 bc a3 a3 09 bc
       0.006109533 0.0034196137 -0.007981685 -0.00840083
000310 c0 a6 ca 3b e0 b9 bf ba f1 6f 3b 3b 02 65 c2 bb
       0.006184429 -0.0014627539 0.0028600658 -0.005932451
000320 e7 d3 17 3c d1 f8 b3 bc 42 cd 3c bc a2 48 fc 3a
       0.00926683 -0.02196923 -0.011523547 0.001924772
000330 c0 0a ca bb 61 74 e2 3b 4e c2 f5 ba 9d 75 ad 3b
       -0.0061658323 0.006910846 -0.0018749924 0.0052935616
000340 d3 11 11 bd 04 89 4b 3c 13 2b 44 3b e7 c4 1a bc
       -0.03541739 0.012422804 0.00299329 -0.009446359
000350 83 7c 9f ba db 4d de bb 62 15 b9 ba d3 30 e5 b9
       -0.0012167845 -0.0067841834 -0.0014120752 -0.0004371466
000360 4f d0 ec bc bf dd 2f 3c b6 b7 75 bc 2a 27 6c 3c
       -0.028907923 0.010734021 -0.014997413 0.014413634
000370 68 1d 0b 39 d3 99 c7 3c 6e 2f b5 ba d4 ee c5 3b
       0.00013267028 0.024365341 -0.0013823339 0.0060404334
000380 fc 78 15 bc 9c 21 97 39 6e dc a1 3b 9a 39 fa bb
       -0.009123083 0.00028826005 0.0049396073 -0.007636261
000390 e3 26 3b bc 4b b6 b9 bb e1 9d 7a ba e7 5b 52 3a
       -0.011422846 -0.005667483 -0.0009560269 0.0008024559
0003a0 34 c8 82 bb 2a 43 a0 3c 46 24 26 3c f8 a1 85 bc
       -0.003991151 0.019563276 0.010140484 -0.016312584
0003b0 3f d1 35 3b 32 a9 53 bc 3a 18 af 3b 05 0b 68 3c
       0.0027743129 -0.012918757 0.005343464 0.0141627835
0003c0 b8 91 6b 3a fa 73 99 b9 1b 0a 5f 3c ad 9c 20 3b
       0.00089862524 -0.00029268843 0.013613249 0.0024507449
0003d0 18 7e c1 bb 84 e4 4b 3c e5 1a 38 bc 12 99 30 3c
       -0.005904924 0.012444619 -0.011236881 0.010778682
0003e0 c3 b8 26 bc 32 14 9c 3c eb dd 5e 3b 1a d5 a8 bb
       -0.010175887 0.019052599 0.0034006785 -0.005152357
0003f0 bb e1 8b bb eb 2a d5 3b 6e e2 a4 3b d7 0a ee bb
       -0.0042688525 0.0065053604 0.0050318753 -0.007264476

comment_encoder.gru.bias_ih_l0 f4 [384]
000000 77 54 11 bb 6f 58 9e 3a 71 c3 fb 3b ee 6c d0 bb
       -0.002217559 0.0012080799 0.0076832105 -0.0063606417
000010 1a c1 4a 3d a9 37 a9 bc 70 2e 24 3c ed 2b 79 bc
       0.049500562 -0.020656424 0.010020837 -0.015208227
000020 c2 a6 23 bd 42 0f 0b 3d 2c dd 83 3b a6 31 bc bb
       -0.039953955 0.033950098 0.0040241685 -0.0057432232
000030 05 37 97 3d 84 c3 a9 bb 64 0b e5 bb bc 9d 3c bb
       0.07383541 -0.005180778 -0.0069898833 -0.002878054
000040 93 7c fa bc 12 88 93 3c f3 ab d0 bb 1f 93 27 3b
       -0.03057698 0.01800922 -0.006368154 0.0025569869
000050 92 00 9e bc e8 a5 47 bd b2 e5 32 3d 02 d8 05 bd
       -0.019287381 -0.048742205 0.043676086 -0.032676704
000060 25 6b 92 3c 76 6c a0 bc db 81 14 3c 17 82 f9 3c
       0.017873356 -0.019582968 0.009064163 0.03045754
000070 20 4a 2f 3c 0b cf 59 3c 37 8b a2 3c b8 f5 30 bc
       0.010698825 0.013293992 0.019841773 -0.010800771
000080 c7 b5 e5 b8 c4 90 3f 3c 49 80 51 3b e6 8b 36 3c
       -0.000109534296 0.01169223 0.0031967333 0.011141753
000090 6e 49 1e 3d b5 2f 2d 3c 2b 67 23 bd f5 96 96 3b
       0.038644247 0.010570456 -0.03989331 0.004595632
0000a0 b7 6f d1 3b 17 8d 36 3c 1e dc 9b 3d 06 58 db bb
       0.0063914913 0.011142037 0.076103434 -0.006693843
0000b0 93 1e 2a 3d 96 19 df 3b 02 c3 dc ba f3 bd 22 bc
       0.041533064 0.00680847 -0.0016842785 -0.009932983
0000c0 1b 00 51 3d 89 0c 32 3c 6f f8 d7 3b 1a 3a ef b8
       0.05102549 0.010867246 0.006590895 -0.0001140723
0000d0 ff 4c 88 3d e5 4e 31 3c 47 23 dc bc 36 fb 13 bd
       0.06655311 0.010822033 -0.02687229 -0.036128245
0000e0 dc 03 1c bc 7e 33 77 3d 9f 0e a3 3b 90 6e 80 3c
       -0.0095224045 0.06035184 0.004976108 0.01567772
0000f0 4d 61 f6 3c d9 c5 d3 3c 65 c4 2f bd 19 2e 01 bb
       0.030075694 0.025851177 -0.042911906 -0.0019711314
000100 53 7b 43 3c c7 bf 65 3b df 37 36 3d b0 6f 9a 3c
       0.011931258 0.0035056935 0.044486877 0.018852085
000110 bc 71 ba 3b 3e 85 8e 3c 52 27 8b 3c 97 11 39 bb
       0.0056898277 0.01739752 0.016986523 -0.0028239244
000120 e3 60 42 bb d6 e0 8d 3d bd f0 2b bc cb 4e 9d 3c
       -0.00296598 0.0692765 -0.010494408 0.01920261
000130 56 e4 34 3b 87 f3 ff 3c d2 1d 90 3d 1f 7e de 3c
       0.002760192 0.031244053 0.07036938 0.027159749
000140 02 8d a5 3d 4a f9 06 bd 3d 1c 31 bd 67 d3 74 bb
       0.08083536 -0.032952584 -0.04323982 -0.003735745
000150 10 af 16 3d c0 65 fe 3c 27 ec d7 bb 44 16 35 ba
       0.036788046 0.031054378 -0.006589431 -0.000690792
000160 35 43 9e 3c 40 e3 85 3d 62 9c 85 3c 9f be d3 bb
       0.019319156 0.06537485 0.01630992 -0.006461933
000170 50 cd 3c 3c 86 8a c6 bc f8 cc 25 3d f2 dd 31 bc
       0.01152356 -0.024235975 0.040478677 -0.010856139
000180 65 52 4a 3a d6 89 c9 bc a0 27 f7 bb b9 88 89 3c
       0.0007717966 -0.024601858 -0.0075425655 0.016788827
000190 d7 bc 52 3d 27 85 55 b9 3a d1 3b 3d 4e 3e 36 3c
       0.051449623 -0.00020362866 0.04585383 0.011123253
0001a0 bd c8 f6 bc 76 d2 53 ba 53 d9 c1 3c 65 78 04 bd
       -0.030125016 -0.00080803724 0.023663199 -0.03234138
0001b0 1a 9c 21 3a 21 64 33 bc b2 75 e7 3c 38 06 73 bc
       0.00061649235 -0.010949166 0.028254364 -0.014833026
0001c0 0f f5 f8 3b c2 23 09 3d de c2 08 bd 91 6a f7 3b
       0.0075975726 0.033481367 -0.033388965 0.0075505455
0001d0 92 cd b1 3c 16 24 67 3d d0 2e 08 3c 35 00 d6 bb
       0.021704469 0.0564309 0.008311942 -0.0065307864
0001e0 f2 21 3e 3c 7b 4f 75 3c ea 25 5c 3c c4 25 d4 3b
       0.011604773 0.014972563 0.013436774 0.0064742286
0001f0 15 1f 02 3c 71 35 90 bc 45 5f 90 3c f3 54 34 3b
       0.007941981 -0.017603608 0.017623553 0.0027516454
000200 af 1c 72 3c a9 fc 4a bd 4a b4 de 3c a0 69 80 3b
       0.0147773465 -0.04955736 0.027185578 0.0039188415
000210 91 1a 1d 3d 84 c7 c5 ba e4 37 9a 3c 1d 7f 69 3c
       0.038355414 -0.0015089368 0.018825479 0.014251498
000220 c1 ba e2 3c 4d db c8 bd 39 f8 70 bc cd f3 71 bb
       0.027676942 -0.09807453 -0.014707618 -0.0036918998
000230 7a 37 5f 3d e4 81 0d b9 c4 0a a4 bc 35 e2 82 bd
       0.054496266 -0.00013495196 -0.020024665 -0.06390802
000240 ed b6 0e 3b 08 2e 1e bc d7 d2 a8 ba ea b4 30 bd
       0.0021776513 -0.009654529 -0.0012880218 -0.043141283
000250 b6 3a 20 bc 27 a1 56 3d 62 c9 8b bc 70 e4 71 3b
       -0.009779623 0.05239978 -0.0170638 0.003690984
000260 1b f5 85 3b 51 4a 9c bc bd ab 63 bd 9b e5 26 bc
       0.0040880567 -0.019078406 -0.055583704 -0.010186578
000270 f4 3f 42 bd c5 73 48 3d f7 3c 04 bc 7d ea e2 bc
       -0.04742427 0.04893853 -0.008071176 -0.027699703
000280 8b 3f 84 3b 46 73 a1 3c 38 c7 8f 3c d8 89 41 bd
       0.004035895 0.019708287 0.01755105 -0.0472506
000290 8a 9a 60 bd ee 62 d8 bc 04 45 7b 3b dd 0a 90 3c
       -0.05483488 -0.02641436 0.0038340697 0.017583305
0002a0 24 5c 2b 3c b2 44 c6 bc 2b e0 f9 bc 8e 74 12 bd
       0.01045898 -0.024202678 -0.0305024 -0.035755686
0002b0 0f 47 5f bd 5c 70 f6 bc e9 24 9d bc e3 65 d7 bc
       -0.054511126 -0.030082874 -0.01918264 -0.0262937
0002c0 2e d8 3e 3b 9d 2a 0f bd 10 e6 08 3d 51 c2 2f 3c
       0.0029120552 -0.03495275 0.03342253 0.010727481
0002d0 b2 c8 ff 3c 35 6e be bc cb 18 18 3d 99 5f c4 bc
       0.031223629 -0.02324591 0.03713302 -0.023971366
0002e0 1f 33 80 bd 6b 25 1c bd c9 e7 c3 bc 4b f7 ae 3c
       -0.062597506 -0.038121622 -0.023914235 0.021358153
0002f0 21 18 49 bd e9 39 02 bd e0 4f da bb aa 93 17 3b
       -0.049095277 -0.03179351 -0.006662354 0.0023128786
000300 6f 46 26 3d 92 a0 e6 3a 08 c3 52 ba 78 b8 ba bb
       0.040594514 0.0017595461 -0.0008039926 -0.00569826
000310 eb 82 3b bc 6a 06 85 bd 73 4b 10 3c 01 ba ec 3b
       -0.0114447875 -0.06495364 0.008807051 0.007224322
000320 ce 83 bf bc e0 c6 85 bd 2d 3d 24 bd 18 76 34 3c
       -0.023378279 -0.06532073 -0.040097404 0.011014484
000330 81 51 83 bc f0 04 78 bc b9 29 0c 3d 81 55 0e 3d
       -0.016030075 -0.015137896 0.034219477 0.03474951
000340 fc ed bf 3c a9 ad 59 bd 3c c7 42 bd 1a 6a e4 3c
       0.02342891 -0.05314413 -0.047553286 0.027882624
000350 f6 2f 25 3c 27 cf 66 bb d0 f4 1b bd 44 3e 98 bc
       0.010082236 -0.0035218687 -0.03807527 -0.018584378
000360 db 92 84 bc 43 79 4d bd c9 9d 8f bd ec 97 72 bc
       -0.016183307 -0.050164472 -0.07012517 -0.014806729
000370 49 ed 9a bd f4 d8 de ba 05 70 bd bb c8 05 a8 3c
       -0.0756479 -0.0017001913 -0.005781176 0.02051057
000380 ea ea 8a bc ed dc a9 3b 44 80 96 bc 9c 8d da bc
       -0.016957719 0.005183807 -0.018371709 -0.026678853
000390 ec 39 08 bd 2f c5 25 bd dc ff 2c 3c b5 c2 f2 3b
       -0.033258364 -0.040471252 0.0105590485 0.007408465
0003a0 f6 ba 83 ba fb 1f b1 bc 7e 4d c8 bd 09 92 3e 3c
       -0.0010050226 -0.021621695 -0.097804055 0.011631497
0003b0 d9 70 1b 3c c8 93 9a bd fa 5f 06 3c 24 23 97 3b
       0.009487354 -0.07547718 0.0082015935 0.0046123434
0003c0 28 09 39 bc 76 15 02 bd 80 0c ca 3c 67 57 3b 3b
       -0.011293687 -0.031758748 0.024664164 0.0028586031
0003d0 81 fe cc bc f8 b7 82 bc 9d 06 e0 bc fa 3a 20 3d
       -0.0250237 -0.015956864 -0.027346903 0.039118744
0003e0 6d e6 a0 bc 14 2a c1 bd c7 ff ea bc e6 82 12 bc
       -0.019641126 -0.09431854 -0.028686417 -0.008942341
0003f0 fe 23 c4 3b 59 b5 25 bb 68 25 80 bc 1f f5 03 bb
       0.005985736 -0.0025285094 -0.015642837 -0.0020135117

comment_encoder.gru.bias_hh_l0 f4 [384]
000000 10 67 a3 3c 23 8a 0d 3d 40 e8 28 bc 0a 0f da 3c
       0.019946605 0.034555566 -0.010309279 0.0266185
000010 3e d7 10 3d a0 f4 38 bd 58 3b 89 bb 10 87 a3 3c
       0.03536152 -0.045155168 -0.0041879825 0.019961864
000020 17 00 85 bc 8f 59 45 3c 7f cb 97 bb 4f a9 cf ba
       -0.016235394 0.012045278 -0.004632413 -0.0015843305
000030 01 03 ed 3a a1 df 8b 3c 6b c1 12 bc 1f 48 71 bb
       0.001808256 0.017074408 -0.008957247 -0.003681667
000040 04 80 d5 bc ec 32 51 bb 56 cd c4 3c d2 79 0a bc
       -0.02606202 -0.003192122 0.024023693 -0.008451896
000050 33 ac 13 3d a6 d1 13 bd c7 3b 22 bc b0 43 05 3c
       0.036052894 -0.03608861 -0.009901947 0.008133814
000060 50 f2 30 3c 57 b4 c2 bc 0f aa d5 bb 2c 0c d2 3c
       0.010799959 -0.023767633 -0.0065205167 0.02564057
000070 75 e8 74 3c 70 42 34 3d 2b 42 11 3c ec c4 c2 3c
       0.014948 0.044008672 0.008865873 0.02377554
000080 cd 13 05 3d c7 f9 31 bc 9f 88 bc 3c a2 07 32 3c
       0.032489587 -0.010862774 0.023014365 0.010866078
000090 10 e4 67 ba 13 8b 6b 3d 90 dd 50 bd 9f 38 44 3c
       -0.00088459346 0.05750568 -0.05099255 0.01197639
0000a0 29 12 f3 3b 31 06 0b 3c 64 e1 64 3d 63 2f f9 39
       0.0074179363 0.008485363 0.05587901 0.00047528287
0000b0 dd b2 54 3d 31 94 80 3c aa 44 42 3c d7 31 53 3d
       0.05192839 0.015695663 0.011857191 0.051561203
0000c0 85 8e a3 bc 6b 19 fa 3c 83 b0 e2 3c b3 8a eb bc
       -0.01996542 0.030529698 0.027672058 -0.02875266
0000d0 93 45 13 bd 29 ee ef bc d2 86 28 3c 52 74 96 3d
       -0.035955023 -0.029288368 0.01028605 0.07346405
0000e0 f0 db 05 3d 31 79 b6 bc 53 71 cb 3b 7d 55 ed 3c
       0.032680452 -0.022274585 0.0062085777 0.028971428
0000f0 d4 39 04 3d e6 3a 09 bc b5 c7 18 3d c9 7c 22 39
       0.03228171 -0.008375859 0.03729983 0.0001549601
000100 84 b0 40 3d 2d 44 6d 3a f3 98 da bb 8f 10 09 bd
       0.04704334 0.00090509915 -0.006671065 -0.033463057
000110 87 bc 95 3b bc 62 db 3b ce df 2c 3d 7e 00 96 3c
       0.0045695934 0.0066951197 0.042205624 0.018310782
000120 13 f4 d1 39 75 fe 4f bd 59 7d 09 3d bb 42 88 bb
       0.00040045436 -0.05077978 0.033566806 -0.0041583455
000130 f0 01 43 bc 54 9c c2 bc 41 f6 15 bd 56 0b ce bc
       -0.011902317 -0.023756184 -0.0366118 -0.02515189
000140 cc 90 41 bd e9 1d bf bc 74 16 09 3d 50 77 16 3c
       -0.04725723 -0.023329692 0.03346868 0.00918372
000150 ae ea ea 3c f5 fa a2 3c 1e 87 10 3d 1f 09 b8 bc
       0.028676357 0.019895056 0.035285108 -0.022465287
000160 bb cf 83 3c b2 5d 88 3d b7 2e fd 38 ca c6 b0 3c
       0.016090265 0.06658496 0.000120726814 0.021579165
000170 c0 2c 10 3c 17 1a 4d bc 78 eb 13 3d b9 4b 37 3b
       0.008799732 -0.012518427 0.036113232 0.0027968718
000180 55 93 db 3b f0 06 12 3d 68 73 2a bb 91 b3 97 3c
       0.006700913 0.035651147 -0.002600873 0.018518241
000190 42 c9 3b 3d c4 25 5c 3c a7 f3 61 3d b0 63 04 3d
       0.04584623 0.013436738 0.055164006 0.032321632
0001a0 00 d4 09 3d e1 9d 2e bb 76 58 5f bc 50 a5 62 3d
       0.033649445 -0.0026644396 -0.013631931 0.055333436
0001b0 eb 1d b9 3b d6 8a 11 3d a9 0e ed bc ee c5 df bc
       0.0056493185 0.035532795 -0.028937655 -0.02731606
0001c0 0a 0a e1 3b fc 96 51 3c 50 1d 46 3d 95 28 63 3c
       0.006867652 0.012792345 0.0483678 0.013864656
0001d0 2b 62 15 3c 0f 8e 75 3d d0 05 4d 3c 1b 26 31 bd
       0.009117643 0.05994993 0.012513593 -0.04324923
0001e0 47 cb ae 3b 2e 03 98 3c 62 86 be ba 76 4b 15 3c
       0.005334291 0.018556204 -0.0014535899 0.00911223
0001f0 35 d9 0b bc 00 bd 1c 3c 19 63 f3 3c b1 6b 86 3b
       -0.008535673 0.0095665455 0.02971034 0.0041021933
000200 e7 f7 55 3c 71 54 9e bc 89 b6 5c bd 24 24 ca 3b
       0.013059593 -0.019327374 -0.053885017 0.006168859
000210 4a 82 25 bc bd 99 5d bc a6 73 38 bd 07 38 39 3d
       -0.010101864 -0.013525424 -0.045032166 0.045219447
000220 6a 2f c6 3b d3 5a 7d bd f9 1d 17 bd 99 9d 0e bc
       0.0060481327 -0.061854195 -0.03689382 -0.008704566
000230 9c f2 b5 3c ae 66 bb bb f9 c5 0f bb ec dd 61 bd
       0.022210412 -0.0057190275 -0.002193807 -0.05514328
000240 e6 5d 6e bc aa 0c cf bc 69 35 45 bb ab f6 62 3a
       -0.014548754 -0.025274593 -0.003009165 0.0008657972
000250 f4 76 e4 bc bb 29 d9 bc 28 31 96 bc 89 87 36 bd
       -0.027888753 -0.026509156 -0.018333986 -0.04456285
000260 45 10 98 bc b1 5c ed bc bc f1 e2 bc 3b b4 3f bd
       -0.018562445 -0.028974863 -0.027703159 -0.04680274
000270 78 9c 37 bd 74 07 48 bd 16 b5 d3 bc c2 fc 0c bd
       -0.044826955 -0.048835233 -0.025843184 -0.034420736
000280 ec 67 03 bc 3f c2 24 bc 65 65 83 3c 63 11 36 bd
       -0.008020382 -0.0100560775 0.01603956 -0.044450175
000290 5d 2f 89 bc 1a 60 ce bc fe 7d ff 3c 72 7c 2e 3c
       -0.016746217 -0.02519231 0.031188007 0.010649787
0002a0 c5 9b 0a 3d 30 e6 9c bc 01 7c 19 bd 4b bd 1a bd
       0.03383996 -0.01915273 -0.037471775 -0.03777818
0002b0 6c 58 79 bd 96 30 61 3c 5f 7d e6 3b 7c fd 6b bc
       -0.06087534 0.013744494 0.0070339884 -0.014403697
0002c0 8d 6d 00 bc 71 ef 27 bd d4 60 52 bd 93 68 3e bc
       -0.007838619 -0.040999833 -0.051361874 -0.011621612
0002d0 ec a9 37 3c 60 7b 7d bd db 37 ee 3c dd b3 b1 bc
       0.011209946 -0.061885238 0.029079368 -0.02169221
0002e0 6e 6d 22 bd 87 b7 c1 3b b2 83 25 3c e9 bd 41 bd
       -0.03965514 0.0059117707 0.010102199 -0.047300253
0002f0 fc 7a 86 bd 7b 44 7f bd 08 42 5d 3d 48 30 fe 3a
       -0.06566426 -0.062321167 0.05401805 0.0019393051
000300 5b 57 a3 3c f2 25 94 3b 27 65 eb bc b6 1e e8 bc
       0.019939115 0.004521125 -0.028734757 -0.028334957
000310 d2 66 12 bc 03 13 3e bd b4 36 3b 3c 1e 8c 74 3c
       -0.008935647 -0.04640485 0.011426616 0.014925985
000320 f1 92 42 bd 4d 3a b0 ba ca 23 93 bd e6 ee 6c bd
       -0.047503415 -0.0013445109 -0.071845606 -0.05784502
000330 fd e3 74 bc 70 62 30 bd b6 bd 3a 3d 7a 6c 7d 3c
       -0.014946935 -0.043062627 0.04559108 0.015467757
000340 08 bd 2a bd 6c 84 cc bc 9f 36 d1 bc 3c 24 10 3d
       -0.04168418 -0.024965487 -0.02553874 0.035190806
000350 95 68 08 bc b4 51 7d bb 8f da 71 bd ea 13 cd bc
       -0.008325716 -0.0038653435 -0.059046324 -0.02503391
000360 5f d6 9c bd ca b2 a3 bd af 18 b3 bc bd 21 7e 3c
       -0.076580755 -0.07993086 -0.021862356 0.0155109735
000370 63 c0 86 bd 6a 8c 75 bd e7 8d c1 3c 88 4c 64 3c
       -0.065796636 -0.059948362 0.023627235 0.013934262
000380 ab b4 54 bc 8d 23 cf bb 8e 1f c0 bc 93 7c c4 bc
       -0.012982528 -0.0063213767 -0.023452546 -0.023985183
000390 e1 5c 0f 3d f0 ca 17 bd 75 a8 16 bc 06 79 06 bd
       0.035000686 -0.03705877 -0.009195437 -0.03283026
0003a0 62 d5 03 bd da 65 aa 3c 79 4c d3 bd 5f 85 c5 bc
       -0.03218592 0.02080052 -0.103173204 -0.024111448
0003b0 18 72 e3 bc 01 3f 50 bd 30 c2 11 ba 86 bc 0c bc
       -0.027764365 -0.050841335 -0.0005560247 -0.008589869
0003c0 85 4f c6 bc c1 65 67 3b 44 92 6b bd 2d ec 9b 3a
       -0.02420784 0.0035308453 -0.057512537 0.0011895947
0003d0 bf de 27 bd df 9c 1d bd d3 6f 43 3c a1 3a 62 ba
       -0.04098391 -0.038479682 0.011928516 -0.0008629952
0003e0 43 33 43 bc b6 43 72 bd e2 ab 24 bc 32 3f 24 bc
       -0.011914077 -0.059146605 -0.010050746 -0.010024833
0003f0 3e c0 40 bb 91 dc 0c bd 04 66 47 bc 44 da b5 bb
       -0.002941146 -0.034390036 -0.0121703185 -0.005549701

user_encoder.gru.weight_ih f4 [384, 129]
000000 3c 08 44 bb 5b 29 7d 3d c3 dd 72 bd 42 09 34 bb
       -0.0029912135 0.061807018 -0.05929352 -0.0027471338
000010 a5 5c 83 3c 4d cd b5 3b 37 99 ff bc ed 2b b5 bc
       0.016035387 0.0055481554 -0.031200988 -0.022115672
000020 d0 da 0a bc e8 eb 58 bd c9 16 2c bd 5f a0 87 bc
       -0.0084750205 -0.052959353 -0.042013917 -0.016555963
000030 f6 dd ae 3b 66 b9 8a 3b da fa e8 3b 5a fa d3 bc
       0.0053365184 0.004233527 0.007109982 -0.025876213
000040 25 98 56 3c a6 c3 76 3c 7e e8 ed 3a 31 71 0e 3d
       0.0130977975 0.015061295 0.0018150953 0.034775916
000050 42 72 97 bc dc 4a 8a bc 58 c4 c3 bc c1 bc 16 bc
       -0.0184871 -0.016881399 -0.023897335 -0.009200276
000060 f4 a8 d4 3c 50 26 d0 3c c6 e1 d1 bc 7a 13 6a 3c
       0.02595947 0.025408894 -0.025620352 0.01428687
000070 db fe 7d 3c 49 67 24 3d 82 e5 af bc b0 f5 74 bc
       0.015502657 0.040137563 -0.021471743 -0.014951155
000080 d7 14 07 3d 1c 51 33 bd 46 48 e4 3b 67 53 0a 3d
       0.03297886 -0.043778524 0.0069666235 0.033770945
000090 d1 e9 eb 3c ef f2 5d bd 81 70 06 3d 90 c0 0d 3c
       0.028798016 -0.054186758 0.032822136 0.0086518675
0000a0 66 d4 45 37 1d 6e d9 bc df d8 58 3d 43 66 bf bc
       1.1791568e-05 -0.026541764 0.0529412 -0.023364192
0000b0 f9 8b c3 3c 01 6e ab bc 31 5d 96 3b f5 92 bd bb
       0.023870455 -0.020926477 0.004588746 -0.005785341
0000c0 86 22 6b 3b d5 89 70 bd 7c 4e b2 bc c0 b4 65 bc
       0.0035878732 -0.058725197 -0.02176594 -0.014020145
0000d0 42 c2 8c bc 47 67 02 3d e9 69 74 3c 74 e5 65 3c
       -0.017182473 0.031836774 0.014917829 0.014031757
0000e0 7b 88 77 bd 51 66 b8 3c c0 f6 28 3d 6b 09 6d 3c
       -0.060432892 0.022509726 0.041250944 0.014467577
0000f0 e5 b3 26 3d 6b 9a 20 bd bd 16 0d 3c 72 cc b3 3a
       0.040698905 -0.039209764 0.008611378 0.0013717546
000100 bf c0 91 bb a6 b0 b5 3a 46 f4 a6 3b e3 39 10 bc
       -0.004448026 0.001386185 0.0050950376 -0.008802864
000110 19 4d 89 3c 6b e8 27 3d 7d 55 12 3c e5 26 3f bb
       0.016760396 0.040993135 0.008931515 -0.002916747
000120 18 ad de 3c 5a ae 15 3d 8d f5 2e 3d 1e fe 2b bd
       0.027182147 0.036543228 0.042714644 -0.041990392
000130 15 94 c7 3b 55 1b 19 bb 1e 24 3e bc b7 5b 4f 3c
       0.006090651 -0.0023362238 -0.011605291 0.012656144
000140 ab 7a 12 3d 1d 6a 0d 3d 1f 18 66 3d 6c 93 e1 3b
       0.035761517 0.034525026 0.056175347 0.006884029
000150 17 88 37 bc 36 6f 4f 3d 29 39 76 bd 4e 28 8d 3c
       -0.01120188 0.05064317 -0.060113106 0.017231133
000160 31 3b 13 3d 0a 7e 16 3d a3 ff 58 3d 1a cf c5 3c
       0.03594512 0.036741294 0.05297817 0.024146605
000170 84 ca 31 bd 15 a3 65 bd 93 e5 e8 3c 02 b6 64 bc
       -0.043406025 -0.05606373 0.028429782 -0.01395941
000180 c4 4c 69 3b 86 da 85 3c a1 02 88 bc 3a 0f d3 3a
       0.0035598734 0.016339552 -0.016602816 0.001610256
000190 8f 01 87 3d 1b ed 19 bd 70 ee 4f ba 80 fc b0 bc
       0.06592094 -0.037579637 -0.00079319533 -0.021604776
0001a0 67 37 8c 3c 4a 8f ec bc d9 ba f0 3c 40 1f 41 3d
       0.017116262 -0.02887692 0.02938597 0.047148943
0001b0 19 9f af 3c bc 41 77 bd c6 00 a1 bc f2 c0 85 ba
       0.021438168 -0.060365424 -0.01965369 -0.0010204597
0001c0 e4 a8 6f 3c 98 31 32 39 81 f0 9d bc 46 39 27 3b
       0.014627669 0.00016993878 -0.01927972 0.0025516315
0001d0 b5 68 ca 3c 26 57 0a bd 37 a7 4a bd 06 94 83 bc
       0.024708131 -0.033774517 -0.049475875 -0.016061794
0001e0 39 48 4d 3d a0 81 98 bd e4 ff 74 3c ea 99 12 3c
       0.050117705 -0.07446599 0.014953587 0.008947829
0001f0 af d9 43 3b a5 45 d4 3c 76 b0 b3 3c 98 7b 3c 3c
       0.0029884388 0.025912115 0.02193473 0.011504076
000200 aa f7 5d bc b0 69 f9 39 b5 0f 82 ba 94 da 0b ba
       -0.013547817 0.00047571724 -0.0009922894 -0.0005335
000210 b9 06 00 ba 74 2e 25 ba 68 d9 1e ba a0 32 05 3a
       -0.0004883814 -0.00063011725 -0.0006059618 0.0005081091
000220 92 74 e2 3a 64 c4 d4 3a dc f0 a7 39 d5 5f de 3a
       0.0017277172 0.0016232845 0.00032032176 0.0016965816
000230 8e 22 dd 36 c2 73 97 b9 02 c2 a5 3a d5 6b 32 ba
       6.590336e-06 -0.0002888721 0.001264632 -0.00068062294
000240 70 f6 00 3b d2 08 3a ba f8 31 b6 b7 b3 c8 5f ba
       0.0019678138 -0.0007096651 -2.171936e-05 -0.00085366814
000250 14 73 3a ba 07 37 04 3a c7 d0 16 3a 80 ea a0 3a
       -0.0007112485 0.00050436 0.0005753156 0.0012276918
000260 03 cc a9 ba ec 03 de b9 75 8b 87 ba 58 72 2f 3b
       -0.0012954477 -0.00042346062 -0.0010341244 0.0026771035
000270 e7 da f9 39 4b 7a 9d 3a 18 6f 87 ba 63 6e a4 3a
       0.00047656076 0.0012014596 -0.0010332791 0.0012545105
000280 52 9b 11 b8 99 67 19 b9 26 90 13 ba 9f 89 8e b8
       -3.4715347e-05 -0.0001462981 -0.0005629085 -6.7967216e-05
000290 56 bc f7 39 49 e2 30 ba 64 fe c6 38 76 bd 19 ba
       0.00047251832 -0.00067475863 9.48876e-05 -0.00058647187
0002a0 98 37 86 ba 6d 41 5b ba f9 63 a0 3a 44 85 29 ba
       -0.0010239957 -0.0008363936 0.0012236825 -0.00064666965
0002b0 b7 a4 f6 3a 96 b4 e7 39 06 68 c5 3a 14 b8 dd b7
       0.0018817399 0.000441943 0.0015060909 -2.6430971e-05
0002c0 a7 01 0a bb 99 60 45 b8 f7 15 b0 3a c0 98 20 3b
       -0.0021058114 -4.7058424e-05 0.001343428 0.0024505109
0002d0 5e 14 02 3b 0b 2f b9 3a be a3 48 ba e7 a3 7a b9
       0.0019848566 0.00141284 -0.0007653794 -0.00023902916
0002e0 d3 0b 44 ba b0 b2 d3 3a 9a 58 bb ba 78 fc 31 ba
       -0.00074785686 0.0016151275 -0.0014293373 -0.0006789635
0002f0 dd b8 d2 ba 46 80 75 39 a9 cb e7 3a 34 b1 f5 b9
       -0.0016076822 0.00023412806 0.0017684597 -0.00046862068
000300 1a cf 93 b8 a7 c4 83 ba 0a 62 48 ba b4 dc 13 39
       -7.048082e-05 -0.0010053114 -0.00076440035 0.00014101231
000310 c9 73 94 ba 4d 2c 8e ba 93 db 16 bb 64 82 83 ba
       -0.001132601 -0.0010846943 -0.002301906 -0.0010033366
000320 95 1b 4b 3a 39 d5 75 37 25 a7 a0 b9 96 e7 69 b9
       0.00077479455 1.4652783e-05 -0.0003064211 -0.00022306884
000330 64 57 61 3a 1b b8 3a 39 0d 26 0a bb 01 84 b3 39
       0.0008596091 0.00017806927 -0.002107981 0.0003423989
000340 fa 18 bc b9 ac 3a 4e bb b0 f5 d2 b8 1d 33 33 ba
       -0.00035876763 -0.0031468077 -0.00010059343 -0.00068359246
000350 f2 c2 06 ba 83 81 0d 3b 13 fb 13 bb 86 68 b2 3a
       -0.00051407435 0.0021592088 -0.0022580072 0.0013611473
000360 33 34 b4 39 e9 49 c5 b9 ef 93 d0 ba 47 ba 6c ba
       0.00034371167 -0.00037629835 -0.0015913228 -0.0009030443
000370 da 34 6f ba a3 9b e8 3a 69 f4 6f 3a d0 45 82 ba
       -0.0009125002 0.0017746579 0.00091535464 -0.0009939019
000380 47 8d 08 ba 37 2f 33 3a c1 76 b8 39 3c 87 36 ba
       -0.000520904 0.00068353437 0.00035183693 -0.00069629005
000390 31 ef 66 b8 e3 58 f6 b8 63 1a 66 3a bb 78 5e 3a
       -5.5059038e-05 -0.000117467505 0.00087777356 0.0008486618
0003a0 22 79 73 3b dd fe 9e 39 2f 62 49 3a ed 06 3d bb
       0.0037151058 0.00030325996 0.0007682172 -0.002884324
0003b0 4c de 65 ba d5 be e1 ba ce 90 7d 3a 8d 81 83 3a
       -0.00087687816 -0.001722301 0.00096727617 0.0010033116
0003c0 aa ee 69 ba c5 de fa b9 bf f8 82 39 4b b9 83 3a
       -0.00089238083 -0.00047849692 0.00024980863 0.0010049728
0003d0 ec 05 02 ba c6 e9 87 b9 ff bf 91 39 0f 05 76 3a
       -0.0004959989 -0.0002592338 0.00027799603 0.0009384909
0003e0 7d 4d 1f b8 7d 5f 91 3a c0 c9 4b 3a cd b0 e2 b7
       -3.798072e-05 0.001109108 0.00077738985 -2.7023629e-05
0003f0 07 c1 53 ba d4 80 e2 b8 5f 88 2a ba 96 a5 b4 b9
       -0.00080777745 -0.00010800516 -0.0006505306 -0.00034455647

user_encoder.gru.weight_hh f4 [384, 128]
000000 5f b3 11 3c 93 6b 17 a7 d6 2d a8 b9 df 1e 86 3c
       0.008892863 -2.1013776e-15 -0.00032077607 0.016372142
000010 31 e8 c5 ba d8 ff 8e bc 3e 72 ec bb 1b da 99 b5
       -0.0015099106 -0.01745598 -0.007215767 -1.1462865e-06
000020 cc 2a 97 3b 12 04 3d 3c d8 01 85 bd e4 48 22 bc
       0.004613256 0.011536615 -0.06494492 -0.009905074
000030 10 f8 f5 3c f7 73 f7 3b 08 d5 c3 2e f7 74 1f 3d
       0.030025512 0.007551666 8.905415e-11 0.038929906
000040 35 3a d3 3c 69 e6 cc bc 05 0d a6 bb 8a 45 90 bc
       0.025784591 -0.025012212 -0.00506747 -0.017611284
000050 17 10 01 bc 9c a1 55 37 b8 b4 ff 3b b2 99 1d bd
       -0.007877371 1.2733417e-05 0.007803526 -0.038476653
000060 e6 7c a2 3c 96 e7 78 bd 13 21 d0 21 ca 09 39 bb
       0.019834947 -0.060767733 1.4103383e-18 -0.0028234595
000070 6f ea 48 3d df 6a 7a 3c 6b db a7 2a 22 39 35 bd
       0.0490517 0.015284269 2.981741e-13 -0.04424394
000080 11 65 93 35 ef 1f 2d bd a3 31 6a b9 a1 eb 89 a7
       1.0981768e-06 -0.042266782 -0.0002233447 -3.828061e-15
000090 ed 55 18 bc a7 d6 ab ba fe 81 ed bb 5a 1e 48 bd
       -0.00929783 -0.0013110236 -0.0072481623 -0.04885707
0000a0 2f 54 0e bc ad 1d 5f bc 0d 6c 1c 3d c4 ab 4f bb
       -0.008687063 -0.013617915 0.038188983 -0.0031688074
0000b0 a0 88 c7 3b 3f ed 7f 3b 7f 82 04 bc 94 e0 ff 3c
       0.006089285 0.0039051322 -0.008087753 0.031235017
0000c0 a8 60 7d bb cf 8e 61 3d 4c 13 86 3b 6d d7 49 b2
       -0.0038662348 0.055067834 0.004091656 -1.1748722e-08
0000d0 ac 3e 28 38 9d ee fd bb 4a a4 99 bc d3 ea 11 3d
       4.011269e-05 -0.007749392 -0.018755097 0.035624336
0000e0 f6 a1 51 bb 9a da 94 bb 91 b1 2f bc fa c0 d1 bc
       -0.0031987405 -0.004542661 -0.0107234875 -0.025604714
0000f0 1f be d7 3a 30 b6 59 bc 81 5d 3f bc a7 e8 b4 3c
       0.0016459859 -0.013288066 -0.011680008 0.022083594
000100 8f ff b0 b9 9e 47 0b bd e2 cb a5 bc a2 57 92 35
       -0.00033759742 -0.034003846 -0.02023882 1.0903352e-06
000110 be 93 36 3d f5 58 d9 3c b8 08 24 bc 88 8e 09 bc
       0.04457449 0.026531676 -0.010011844 -0.0083957985
000120 6e b7 8c 3c d7 98 f7 3a 44 05 05 3d 34 f9 a2 bb
       0.01717731 0.0018890154 0.032475725 -0.004973555
000130 73 20 9f 3c c4 8e 46 38 b4 e4 08 bd c0 2a 19 bd
       0.019424653 4.733984e-05 -0.033421233 -0.037394285
000140 05 81 c8 3c 0a 98 7c bb e6 12 3c bd 32 c9 ea bb
       0.024475584 -0.003854277 -0.04591646 -0.0071650976
000150 29 31 55 bc fe c9 56 bd 60 d8 19 bc db c3 6f 3b
       -0.013012209 -0.05243873 -0.009389967 0.0036585245
000160 0b f2 bf bc 65 a1 57 bd d1 66 46 3d a6 52 cb b4
       -0.023430845 -0.052644152 0.048437897 -3.787183e-07
000170 2a c5 0e bd bf 11 02 bd af 30 15 bd a2 b0 5f bd
       -0.034856 -0.031755205 -0.03642338 -0.05461181
000180 0c 84 49 3c 54 11 3a bd 84 1f f8 bc f5 1b f0 3c
       0.012299549 -0.04542668 -0.030288465 0.029310206
000190 4e 23 22 a5 35 ef c2 bc ea 29 19 3c 4c 96 85 b0
       -1.4063222e-16 -0.023795703 0.009348372 -9.719741e-10
0001a0 c5 51 74 3c 43 d2 a2 af be 50 cb bb 6c 5d ec 3b
       0.0149120735 -2.9617028e-10 -0.0062046936 0.007213285
0001b0 e6 2e 2e bd dc 1d 07 3c be b3 18 bc 04 ba 35 bd
       -0.042525195 0.008246865 -0.009320198 -0.04436685
0001c0 95 10 bb 3b db 4a 6e a9 bf 19 85 bb 21 b4 41 bc
       0.005708764 -5.2911543e-14 -0.004061907 -0.011822731
0001d0 e6 67 fa 3a 37 4d 3c 3b 33 e2 bb 3c 70 b2 54 38
       0.001910445 0.0028732547 0.022935009 5.071092e-05
0001e0 77 f0 5f 3c 65 70 8a bc 9b 3f ce 3b 67 3f 76 bc
       0.013668171 -0.016899297 0.0062942035 -0.015029765
0001f0 16 ab d1 b9 e5 71 47 aa 94 6b d5 3c 5e 8c ec bc
       -0.00039991055 -1.7714266e-13 0.026052274 -0.028875526
000200 97 02 7c 3a ae 1e 06 2f fc bb 48 b7 92 4e 9a 3b
       0.0009613423 1.2198129e-10 -1.19646975e-05 0.0047090733
000210 cc 7b b7 3a e3 4e ec 3b 19 d2 ee b9 60 a8 d9 28
       0.0013998686 0.0072115525 -0.00045551432 2.416486e-14
000220 3c 07 57 3b 85 8e f9 b9 bd 4d 87 38 6e 27 87 ba
       0.0032810709 -0.00047599166 6.4517815e-05 -0.0010311434
000230 ba ac bf ba e2 5b 05 bb 76 f4 98 2b e8 58 03 3a
       -0.001462362 -0.0020348956 1.0868101e-12 0.00050105015
000240 4b e2 8e 3c e3 6c ab bb 5f ff bc 3c 89 97 c7 3b
       0.01744189 -0.005231486 0.02307099 0.0060910624
000250 0c fc 9b bc 4c e1 2e 36 51 5a 2d 3d da 3d ad bc
       -0.019041084 2.605916e-06 0.04232246 -0.021147657
000260 4d d5 1a ba 89 cb a4 3c 0b d8 ef 2a 25 cd ab bc
       -0.0005906418 0.020116584 4.2604838e-13 -0.020971844
000270 7e 59 8c 39 9c 33 76 b9 ac 36 c7 a9 ea a2 bf 3c
       0.00026769558 -0.00023479614 -8.846859e-14 0.023393113
000280 94 28 17 b4 d9 de 60 3c 12 1b 99 3b d8 68 8b a3
       -1.4077733e-07 0.013725006 0.0046724165 -1.5114813e-17
000290 e3 74 fa bc b8 17 07 3b cb ef 1c 3c df 66 6b 3a
       -0.030573314 0.0020613503 0.0095786555 0.00089798676
0002a0 58 30 f1 3a ad 3b 0d 3b 7c ef 50 3a 58 96 a6 3b
       0.0018401248 0.0021550462 0.0007970256 0.0050838403
0002b0 f8 af 87 bc 96 71 97 b8 61 3d 1c bc c7 8a cb 3a
       -0.0165634 -7.221398e-05 -0.009536118 0.001552903
0002c0 32 5b 03 3a c5 a1 cc 3c 95 8c d6 39 00 bf 1d b5
       0.00050108426 0.024979481 0.00040922003 -5.8765e-07
0002d0 79 de 2c 38 8b 26 36 3d 93 68 b9 3b bf 81 aa 3b
       4.121519e-05 0.04447035 0.005658218 0.005203455
0002e0 66 04 cb bc 55 49 61 3a aa 19 d2 ba d5 09 72 3b
       -0.02478237 0.0008593996 -0.0016029377 0.003693213
0002f0 42 12 a7 39 51 9a 3e 3b 6f 5e 61 3b 1e 3c 1c 3b
       0.00031866325 0.002908368 0.0034388562 0.0023839544
000300 70 6f c4 3a ea 6b 6c 38 fa 85 cb 3a 25 ee 80 b4
       0.0014986824 5.6367287e-05 0.0015527599 -2.401513e-07
000310 dd 67 25 3c cd 45 61 bc 8f cc c9 bb a3 be 18 3d
       0.010095564 -0.013749552 -0.0061584185 0.03729118
000320 93 cd ac bb 8a 11 f8 3a 9a e3 8c bc b2 3a 14 3c
       -0.00527353 0.0018926125 -0.017198373 0.009047197
000330 eb d0 04 bb 68 36 bc ba 1a 8c e2 bc d2 92 59 3b
       -0.0020266126 -0.0014359476 -0.027654696 0.0033199084
000340 56 b8 51 bc 47 14 30 bb d5 e4 00 3d 89 2d af 3b
       -0.012800297 -0.0026867555 0.03146823 0.0053460044
000350 d4 0b ca 3b 83 f7 62 bc 86 2d 86 ba 8c 66 bd 3a
       0.006165961 -0.013852957 -0.0010236956 0.0014450117
000360 90 3c 7b 3b 8b c5 10 3d 43 71 14 b9 d3 a7 64 33
       0.0038335659 0.03534464 -0.00014156573 5.3238022e-08
000370 4a 15 39 3c 0b 02 d4 3b 6a be 00 3b 66 1b 0a bc
       0.01129658 0.00646997 0.0019644746 -0.008429384
000380 1a fd 1c ba 1e 10 c6 3c 1a 94 e3 3b ef 03 dd 3b
       -0.0005988643 0.024177607 0.0069451453 0.0067448537
000390 c8 b4 c1 26 5e b5 e6 bb 66 0e 1d 3b 42 c4 97 b6
       1.3441066e-15 -0.0070406636 0.002396488 -4.522998e-06
0003a0 c5 47 cf 3b 98 97 f6 2e 58 69 a4 bc 3f 39 6a b9
       0.0063256943 1.1213713e-10 -0.020069763 -0.00022337305
0003b0 a7 a5 8e 3c cf a7 10 bb 8d d4 55 3c 83 6b f4 bb
       0.017412974 -0.0022072678 0.013051164 -0.0074591055
0003c0 9f 48 42 3b 92 3e af ae aa 1a fb 3c 41 ac bf 3b
       0.0029645336 -7.9691934e-11 0.030652363 0.0058493917
0003d0 7f 68 88 39 1a 87 db bb b7 dd e6 3a 8f 44 02 3c
       0.00026017797 -0.006699455 0.0017613684 0.007950916
0003e0 c3 2a 44 b9 c4 c2 a0 ba a4 ef 80 38 37 6d 4d 3b
       -0.00018707947 -0.0012265076 6.148152e-05 0.0031345615
0003f0 49 5c 54 39 9c 13 26 a6 b3 02 ce bb 80 16 10 bc
       0.00020252274 -5.7619395e-16 -0.006286943 -0.008794427
